cifar_cls/resnet.pth (torch_old, 801861 bytes, 77 tensors)

conv.weight f4 [16, 3, 3, 3]
0.04588287 0.032230522 0.14707522 -0.16972683 -0.11929341 0.046005182 -0.08852795 0.19499636
-0.06312108 -0.008670296 -0.14919713 -0.16900054 -0.07812854 -0.25944844 0.19308126 0.22803418
0.20502295 -0.020641055 0.2572264 0.1227486 0.022989126 -0.122453675 -0.17616661 0.22998339
-0.2382168 -0.18666652 -0.02529425 0.10494678 -0.03952299 -0.008796942 0.1403013 0.14502952
0.085070394 -0.06145289 -0.1257843 0.21197271 0.078433715 -0.18218398 -0.27714536 0.13140316
1.2891314e-06 -0.24217205 0.0725557 -0.1721008 -0.119118266 0.16789524 0.02215177 -0.17702526
0.042971488 -0.06363524 -0.15939476 0.06424982 0.10529598 0.09210458 0.022389423 0.25128233
-0.037644777 -0.34983265 0.10413312 0.08549701 -0.081713356 0.135958 -0.022488339 0.04265069
0.20144269 0.20030527 -0.18391371 -0.19549094 0.035984673 -0.25924343 0.11775882 0.03861373
-0.14387088 0.13315406 0.12009263 -0.19564322 -0.17368771 0.038669355 0.103969604 0.038674623
-0.029940514 0.22345828 0.106206894 0.0048236013 -0.20818408 -0.001696239 -0.18687432 0.18674332
-0.025132883 -0.027539834 0.17022558 0.018460745 0.13525702 -0.21624358 0.17815684 -0.012810597
-0.11815723 -0.18454169 -0.048694536 -0.13828456 0.10977064 0.021473754 0.025428744 0.120617636
-0.1692239 -0.08959936 0.042508118 0.08137997 -0.13871366 0.2726096 -0.10512039 0.19231905
-0.21744755 -0.23084535 0.15749942 -0.053907048 0.03837619 -0.16323948 0.22548983 -0.10673325
0.18237002 0.24066748 -0.12857449 -0.19439071 -0.15204287 0.10294858 0.021133505 0.18812698
-0.2206463 0.16897719 -0.07527365 -0.0049518645 -0.074228816 0.07972548 0.064153865 0.09247038
0.04611881 -0.06768415 0.13285232 -0.12674509 -0.0056339256 0.17251213 -0.05210328 0.21854107
0.029884415 -0.21301386 -0.12269505 0.17757742 -0.10279525 -0.24726757 0.22149831 0.27683425
0.20307358 -0.13260077 0.07417558 -0.19055645 0.15189008 -0.030962665 -0.109563604 0.13696447
0.25610605 0.108883664 -0.24365583 0.10319878 -0.06807258 -0.088246316 0.07162389 0.04138996
-0.3380475 -0.19766861 -0.07377378 -0.22845717 -0.074334614 0.22976626 0.04387106 0.020007998
-0.024555152 -0.32216555 -0.10324618 -0.28325728 -0.2220312 0.18814062 -0.039864033 -0.050701316
-0.19609293 0.21897997 -0.09308751 -0.015517495 -0.004915896 0.13880235 0.20591326 0.15673652
0.08369023 -0.020740861 0.06857704 -0.13490291 0.022087602 -0.15410793 -0.28368706 -0.09162167
-0.31916377 -0.12921402 -0.09534795 -0.24199767 0.040274158 0.091626815 0.18701039 0.12657984
-0.02450084 0.16018979 0.14202203 -0.10718293 0.22124477 -0.0135090165 0.1103904 -0.15796047
-0.05579925 0.2011008 0.17528783 -0.24012919 -0.069527164 -0.14261673 -0.16352867 0.20781498
-0.20935406 0.011436061 0.13702226 -0.19848348 -0.008600684 0.0070168 -0.14663869 0.014029476
0.172356 0.21090269 -0.17640115 -0.035554875 -0.1959616 -0.24885583 0.094453126 0.09733056
0.16981804 0.31922236 0.11610562 0.23243472 -0.118283734 0.07262599 -0.19499367 -0.27374882
0.10317566 -0.20518959 0.006129328 -0.23263103 0.06193501 0.008570435 0.1871744 -0.11028955
00000000: adef 3b3d 2704 043d e39a 163e dfcc 2dbe
00000010: 1a50 f4bd ee6f 3c3d 244e b5bd 20ad 473e
00000020: a045 81bd db0d 0ebc 22c7 18be 7a0e 2dbe
00000030: db01 a0bd 6dd6 84be 18b7 453e cb81 693e
00000040: 89f1 513e 6e17 a9bc 2eb3 833e 9e63 fb3d
00000050: b153 bc3c fec8 fabd 0565 34be c480 6b3e
00000060: 1bef 73be 8225 3fbe e335 cfbc 56ee d63d
00000070: dce2 21bd 0d21 10bc 25ab 0f3e 9e82 143e
00000080: 6339 ae3d 07b6 7bbd 99cd 00be 600f 593e
00000090: dba1 a03d 708e 3abe ffe5 8dbe 8d8e 063e
000000a0: 3806 ad35 f3fb 77be 1598 943d 313b 30be
000000b0: 47f4 f3bd bbec 2b3e a177 b53c 1c46 35be
000000c0: df02 303d 3153 82bd 6138 23be 6995 833d
000000d0: 6ba5 d73d 53a1 bc3d 066a b73c 14a8 803e
000000e0: 6931 1abd 441d b3be bf43 d53d 0e19 af3d
000000f0: 5559 a7bd 9338 0b3e 7739 b8bc 7db2 2e3d
00000100: fe46 4e3e d31c 4d3e e053 3cbe c72e 48be
00000110: aa64 133d 8ebb 84be 892b f13d 6e29 1e3d
00000120: e352 13be 8a59 083e 20f3 f53d b256 48be
00000130: 31db 31be c263 1e3d 04ee d43d 4869 1e3d
00000140: cf45 f5bc 3fd2 643e 0083 d93d 4d0f 9e3b
00000150: 352e 55be 5654 deba fb5b 3fbe a439 3f3e
00000160: 7ae3 cdbc 389b e1bc 9d4f 2e3e fd3a 973c
00000170: d180 0a3e f56e 5dbe bf6e 363e 8ae3 51bc
00000180: 6bfc f1bd 7ff8 3cbe ec73 47bd 789a 0dbe
00000190: 6ecf e03d bae9 af3c f14f d03c 6106 f73d
000001a0: 0849 2dbe df7f b7bd fe1c 2e3d 8baa a63d
000001b0: f40a 0ebe 7c93 8b3e 5c49 d7bd 49ef 443e
000001c0: 92aa 5ebe b962 6cbe 8747 213e a3cd 5cbd
000001d0: 5a30 1d3d 4028 27be cee6 663e f696 dabd
000001e0: 35bf 3a3e 8971 763e 08a9 03be 5c0e 47be
000001f0: 20b1 1bbe b5d6 d23d 2c20 ad3c 5ca4 403e
00000200: 1bf1 61be 5b08 2d3e 1229 9abd 4043 a2bb
00000210: 4705 98bd 1d47 a33d 1a63 833d 1c61 bd3d
00000220: 14e7 3c3d fd9d 8abd 700a 083e 77c9 01be
00000230: cb9c b8bb 05a7 303e 406a 55bd 3bc9 5f3e
00000240: 29d0 f43c 4e20 5abe 8b47 fbbd dbd6 353e
00000250: 5186 d2bd b633 7dbe 74d0 623e 38bd 8d3e
00000260: 85f2 4f3e 7fc8 07be 5ee9 973d 3b21 43be
00000270: 1389 1b3e 6aa5 fdbc e262 e0bd 6a40 0c3e
00000280: 5520 833e 66fe de3d ea80 79be e259 d33d
00000290: a369 8bbd 7cba b4bd 8caf 923d 8588 293d
000002a0: 9014 adbe a469 4abe b516 97bd adf0 69be
000002b0: bf3c 98bd d947 6b3e 24b2 333d d0e7 a33c
000002c0: e327 c9bc e2f2 a4be bc72 d3bd 1907 91be
000002d0: 265c 63be efa7 403e 7848 23bd 2fac 4fbd
000002e0: 96cc 48be 493c 603e aaa4 bebd 173d 7ebc
000002f0: 8615 a1bb 3422 0e3e edda 523e 8a7f 203e
00000300: c965 ab3d bde8 a9bc 1f72 8c3d fd23 0abe
00000310: 0ff1 b43c 78ce 1dbe 6e3f 91be 24a4 bbbd
00000320: 6f69 a3be ae50 04be c945 c3bd 3dce 77be
00000330: 84f6 243d d7a6 bb3d a77f 3f3e 259e 013e
00000340: fcb5 c8bc cb08 243e 396e 113e b982 dbbd
00000350: fd8d 623e ec54 5dbc 5d14 e23d 64c0 21be
00000360: c18d 64bd 5eed 4d3e a77e 333e 6de4 75be
00000370: 4264 8ebd 1f0a 12be 0f74 27be 73cd 543e
00000380: e960 56be 515e 3b3c 904f 0c3e 413f 4bbe
00000390: e2e9 0cbc 2fed e53b 7428 16be e3db 653c
000003a0: 177e 303e e0f6 573e 81a2 34be fda1 11bd
000003b0: 28aa 48be 10d4 7ebe a470 c13d 3f55 c73d
000003c0: c8e4 2d3e 1d71 a33e c9c8 ed3d 5e03 6e3e
000003d0: be3e f2bd efbc 943d 6cac 47be ce28 8cbe
000003e0: c34d d33d 381d 52be 88d8 c83b d436 6ebe
000003f0: 91af 7d3d 036b 0c3c a5aa 3f3e 7ddf e1bd

bn.weight f4 [16]
0.725772 0.6836304 0.62857157 0.9618699 0.58025426 0.5315416 0.23227721 0.3613281
0.70602196 0.683623 0.89804727 0.61584914 0.40195525 0.5654774 0.7891148 0.38524413
00000000: 32cc 393f 6702 2f3f 11ea 203f 1b3d 763f
00000010: 8b8b 143f 1c13 083f 14da 6d3e ffff b83e
00000020: dbbd 343f eb01 2f3f 6de6 653f 4aa8 1d3f
00000030: 14cd cd3e 20c3 103f 6d03 4a3f b83e c53e

bn.bias f4 [16]
-0.018564764 0.21849224 0.2924169 0.2839532 0.4740643 -0.046055965 -0.22087863 -0.10655209
0.19728552 0.14138637 0.47086364 0.31229275 0.11679849 -0.12703618 -0.12345171 0.26908723
00000000: 2215 98bc 6ebc 5f3e abb7 953e 5062 913e
00000010: 8eb8 f23e 2ea5 3cbd 022e 62be fb37 dabd
00000020: 3705 4a3e 97c7 103e 0a15 f13e d6e4 9f3e
00000030: 0c34 ef3d c615 02be 40d4 fcbd cdc5 893e

bn.running_mean f4 [16]
-0.060944863 -0.06617019 0.0028777316 -0.0012542713 0.02637922 0.34903422 -0.6979474 -0.018680383
0.010437108 -0.050163556 -0.009223303 0.013300583 -0.006460086 -0.43294713 -0.24103314 0.0051787957
00000000: 52a1 79bd 3d84 87bd 5398 3c3b 5c66 a4ba
00000010: 3c19 d83c 9db4 b23e aeac 32bf 9a07 99bc
00000020: 6700 2b3c 4d78 4dbd 561d 17bc b0ea 593c
00000030: 21af d3bb 3fab ddbe 64d1 76be e3b2 a93b

bn.running_var f4 [16]
0.0092719635 0.023401614 0.036158204 0.011039643 0.009934854 0.10077006 0.20885064 0.0030694054
0.024205439 0.009577622 0.012741283 0.013421627 0.021217916 0.083532885 0.038447957 0.031397756
00000000: 6fe9 173c beb4 bf3c a01a 143d 9edf 343c
00000010: ccc5 223c 8960 ce3d f1dc 553e 1428 493b
00000020: 7c4a c63c 75eb 1c3c d0c0 503c 62e6 5b3c
00000030: 32d1 ad3c 4a13 ab3d 9b7b 1d3d ef9a 003d

layer1.0.conv1.weight f4 [16, 16, 3, 3]
0.012631913 0.0640421 -0.102764495 0.10214882 0.17877711 -0.1315224 -0.06319483 -0.001987778
-0.15473415 -0.045877755 0.07280675 -0.018318295 -0.06970324 -0.16645765 -0.0071297516 0.05897267
-0.21322255 -0.11899841 -0.0035645866 -0.014811373 0.068907656 0.028735654 0.21951221 0.01944643
-0.11195499 0.037495606 0.19348785 0.032703556 0.17824043 -0.13330135 -0.091001585 -0.12068199
0.12763308 -0.10383744 -0.08517106 0.13856983 0.0012579097 0.16551879 0.04145011 -0.104419865
-0.334639 -0.19391562 -0.2958084 -0.18646969 0.17975101 -0.16163619 0.012016753 0.066787615
-0.024178846 -0.031420592 -0.081696324 0.08632456 -0.07609138 -0.020377759 -0.09746393 -0.15739675
-0.09951308 -0.14214596 -0.04574804 -0.0039126882 -0.04828256 -0.11255631 0.0016952377 0.009462651
-0.027959755 0.13989721 0.057275753 -0.027987402 -0.26165387 -0.09793262 -0.14513275 -0.09074246
-0.1415851 -0.05538447 0.14449017 0.001610504 0.10146068 0.18344392 -0.05960926 -0.076687336
0.15948693 -0.036687806 -0.07523539 -0.07059678 0.03914507 0.0057470836 -0.11648251 0.0026791482
-0.0070962235 0.021635896 -0.09182359 0.016364545 0.11319826 0.06576693 -0.16475542 0.02166944
0.06330147 -0.050026532 -0.101307735 0.056444466 0.008145159 0.08925546 -0.07184286 -0.09262083
-0.03453237 -0.028188203 0.025686165 0.026318867 0.042070467 -0.1633226 -0.17861146 0.073624775
-0.040095635 0.012250399 -0.08256054 0.23566413 0.088242345 0.035334434 0.013039965 -0.025363322
0.093198575 0.07526769 0.0716916 0.071042545 0.05850963 0.027484102 0.13530315 0.004186229
0.030160217 0.12239371 0.022134896 -0.05600952 0.073683806 -0.0018330076 -0.053227555 0.1426518
0.36474174 0.117649004 0.21048881 0.7250288 0.38789275 0.30029717 0.18494892 -0.00332696
0.07789138 -0.24023816 -0.24778736 -0.2839279 -0.13687164 0.026277391 -0.052759226 -0.035077855
0.05848714 -0.07287833 0.042866934 -0.036892924 0.07109075 -0.018088924 -0.079056665 -0.09761427
0.027809374 -0.21504168 -0.049923565 -0.26574624 -0.05247968 -0.06936716 -0.10176543 0.3208704
0.115299486 -0.13714576 -0.015677813 0.043985836 0.1443705 -0.08698097 0.10506548 -0.2001592
0.031401746 0.12296383 0.036674693 -0.109227315 -0.12273554 -0.067501366 -0.11878861 -0.039351285
0.20163526 -0.1489173 0.053643923 -0.19039465 -0.036959026 -0.021431312 -0.010293324 0.036220625
0.008331867 0.15671478 0.048839822 0.033954 -0.003174256 0.022312043 -0.03244864 0.025970936
0.16545856 0.088518836 0.18418698 0.25314602 0.028615808 0.006048706 0.010479753 0.20083936
-0.09051144 0.02301533 -0.10687886 -0.0011913741 0.09492635 -0.18524252 -0.30257112 -0.10721207
0.09398042 -0.07355452 -0.019381862 0.06863514 -0.19000304 0.013396437 0.06742798 -0.22613627
-0.010123256 -0.04545991 0.049000733 -0.21720158 -0.12515834 0.03278966 -0.0054398226 -0.024228232
0.17341533 -0.052815795 -0.0929983 -0.04982705 -0.021140154 0.11013918 0.14153025 -0.1223172
-0.038436353 0.0034530996 0.096412905 0.11862239 0.0027204251 0.050432447 0.029664073 0.033476792
0.018923748 -0.044810038 -0.014218288 -0.07311794 0.10659881 -0.05502366 -0.012576974 0.025061164
00000000: 15f6 4e3c 8128 833d 3176 d2bd 6733 d13d
00000010: 5911 373e cfad 06be 4b6c 81bd 6245 02bb
00000020: a172 1ebe 50ea 3bbd b51b 953d 4010 96bc
00000030: 93c0 8ebd e073 2abe b1a0 e9bb 548d 713d
00000040: 0357 5abe 70b5 f3bd d79b 69bb 67ab 72bc
00000050: 751f 8d3d 0967 eb3c cfc7 603e 1f4e 9f3c
00000060: a848 e5bd fe94 193d ae21 463e 2af4 053d
00000070: a984 363e 2680 08be 0a5f babd 1f28 f7bd
00000080: 3fb2 023e b9a8 d4bd 2a6e aebd 40e5 0d3e
00000090: 72e0 a43a c27d 293e 97c7 293d 15da d5bd
000000a0: ce55 abbe d191 46be 3374 97be e9f1 3ebe
000000b0: a610 383e f583 25be eae1 443c f2c7 883d
000000c0: b712 c6bc e1b2 00bd 6750 a7bd eeca b03d
000000d0: ccd5 9bbd 42ef a6bc 2b9b c7bd 9d2c 21be
000000e0: 84cd cbbd b68e 11be 4c62 3bbd 0236 80bb
000000f0: efc3 45bd ec83 e6bd bd32 de3a 3c09 1b3c
00000100: db0b e5bc 3741 0f3e fb99 6a3d d645 e5bc
00000110: 7ff7 85be e690 c8bd ae9d 14be 2fd7 b9bd
00000120: affb 10be d3da 62bd 3bf5 133e 8c17 d33a
00000130: 9eca cf3d b9d8 3b3e d728 74bd 400e 9dbd
00000140: 8b50 233e f445 16bd 0315 9abd 0b95 90bd
00000150: 9556 203d 0852 bc3b 628e eebd a694 2f3b
00000160: 7087 e8bb c33d b13c 020e bcbd f00e 863c
00000170: 7dd4 e73d d0b0 863d a5b5 28be 1c84 b13c
00000180: 33a4 813d 9fe8 4cbd 6e7a cfbd 5032 673d
00000190: 4673 053c 91cb b63d 5922 93bd fdaf bdbd
000001a0: d071 0dbd f2ea e6bc cb6b d23c aa9a d73c
000001b0: 1552 2c3d 0a3e 27be ece5 36be 96c8 963d
000001c0: 523b 24bd e6b5 483c 8015 a9bd f051 713e
000001d0: 67b8 b43d d7ba 103d 94a5 553c bec6 cfbc
000001e0: e5de be3d f225 9a3d 0cd3 923d c17e 913d
000001f0: cba7 6f3d 5726 e13c e98c 0a3e a22c 893b
00000200: 8f12 f73c 8ea9 fa3d 3e54 b53c 3d6a 65bd
00000210: 89e7 963d 8741 f0ba 2305 5abd 5013 123e
00000220: 6ebf ba3e f6f1 f03d 618a 573e 7d9b 393f
00000230: e199 c63e 8dc0 993e 4063 3d3e 2009 5abb
00000240: 8485 9f3d fe00 76be f8bb 7dbe ff5e 91be
00000250: 1428 0cbe af43 d73c 0f1a 58bd ccad 0fbd
00000260: 3690 6f3d 3c41 95bd 3d95 2f3d 091d 17bd
00000270: 0798 913d 392f 94bc 76e8 a1bd fee9 c7bd
00000280: 7cd0 e33c e333 5cbe a77c 4cbd e40f 88be
00000290: eff4 56bd 5f10 8ebd 656a d0bd 2049 a43e
000002a0: 2322 ec3d f06f 0cbe c26e 80bc 7e2a 343d
000002b0: dcd5 133e 1423 b2bd 922c d73d 89f6 4cbe
000002c0: 1e9f 003d 76d4 fb3d 3438 163d 92b2 dfbd
000002d0: c55c fbbd 283e 8abd 7147 f3bd d02e 21bd
000002e0: 7979 4e3e c77d 18be bbb9 5b3d d1f6 42be
000002f0: 5962 17bd b890 afbc 54a5 28bc 145c 143d
00000300: 6282 083c d779 203e 440c 483d 5913 0b3d
00000310: 2e07 50bb bfc7 b63c dde8 04bd 00c1 d43c
00000320: f86d 293e 5d49 b53d 839b 3c3e 5b9c 813e
00000330: b36b ea3c 3934 c63b 45b3 2b3c d5a8 4d3e
00000340: 105e b9bd a58a bc3c 4ee3 dabd e227 9cba
00000350: bf68 c23d 37b0 3dbe 9aea 9abe 0092 dbbd
00000360: ce78 c03d c1a3 96bd b6c6 9ebc 9590 8c3d
00000370: 2890 42be bb7c 5b3c ae17 8a3d 4490 67be
00000380: 03dc 25bc 2c34 3abd feb4 483d 176a 5ebe
00000390: 8229 00be 734e 063d 8a40 b2bb 497a c6bc
000003a0: ca93 313e 6055 58bd e575 bebd 7317 4cbd
000003b0: 1e2e adbc a790 e13d 4eed 103e 7181 fabd
000003c0: 706f 1dbd 664d 623b 2174 c53d 4cf0 f23d
000003d0: 2949 323b 4192 4e3d 1202 f33c f61e 093d
000003e0: fa05 9b3c bb8a 37bd d2f3 68bc dcbe 95bd
000003f0: 7a50 da3d 7d60 61bd a70f 4ebc 124d cd3c

layer1.0.bn1.weight f4 [16]
0.46362188 0.65207624 0.49851093 0.5405511 0.33445695 0.8077564 0.25011826 0.47373843
0.49286208 0.2522632 0.5837469 0.23989043 0.8214426 0.6258154 0.7319239 0.4618362
00000000: d95f ed3e 78ee 263f d33c ff3e 8f61 0a3f
00000010: f13d ab3e 20c9 4e3f 800f 803e d88d f23e
00000020: 6b58 fc3e a428 813e 7070 153f d6a5 753e
00000030: 104a 523f 7035 203f 5d5f 3b3f cb75 ec3e

layer1.0.bn1.bias f4 [16]
0.010940313 0.15201089 0.36169577 0.04030046 -0.08483273 0.17333004 -0.013949639 -0.09940838
-0.18756995 -0.07269421 -0.21647654 -0.09129534 0.21933122 -0.04634253 0.5001697 -0.058347136
00000000: 003f 333c bea8 1b3e 3030 b93e 1812 253d
00000010: c8bc adbd 6e7d 313e 078d 64bc 9f96 cbbd
00000020: 5612 40be b4e0 94bd 07ac 5dbe 0df9 babd
00000030: 5d98 603e aad1 3dbd 1f0b 003f 68fd 6ebd

layer1.0.bn1.running_mean f4 [16]
0.2789124 -0.73827785 -0.47559887 -0.24005783 -1.4530467 -0.72100884 0.68132937 0.088889174
-0.30736902 0.75700396 0.28851083 0.1497092 -1.0887506 -1.7143663 -0.44615486 -0.27606738
00000000: 9bcd 8e3e c7ff 3cbf b281 f3be b8d1 75be
00000010: 6ffd b9bf 0994 38bf 9a6b 2e3f 870b b63d
00000020: 795f 9dbe 03cb 413f b1b7 933e 5e4d 193e
00000030: 2e5c 8bbf 5b70 dbbf 696e e4be b458 8dbe

layer1.0.bn1.running_var f4 [16]
1.4138936 0.62417215 0.4421694 0.32536325 1.0364909 0.6146892 0.25840223 0.9875776
0.1619746 0.45981312 0.570468 0.814001 0.66006964 1.18827 0.36062163 0.25324038
00000000: 77fa b43f bfc9 1f3f 0764 e23e 0396 a63e
00000010: bcab 843f 455c 1d3f 4c4d 843e e3d1 7c3f
00000020: abdc 253e a06c eb3e 310a 123f 5f62 503f
00000030: 53fa 283f 3b19 983f 66a3 b83e b9a8 813e

layer1.0.conv2.weight f4 [16, 16, 3, 3]
-0.088580325 -0.29798993 -0.1738863 -0.007240845 -0.024788285 -0.04685311 0.07808956 -0.090704575
-0.007678502 -0.13822637 0.062303588 0.14148372 0.26847368 0.09314973 -0.139061 0.05358103
0.20810416 0.084802136 -0.09091401 -0.08841207 -0.12098792 -0.27635103 0.027834792 0.13999104
0.026361307 -0.014108306 -0.00031331897 0.058661528 -0.18084474 -0.09299838 -0.10799566 0.032992393
-0.06667675 0.041353483 -0.052715022 -0.047424033 0.1787318 0.30862862 0.06381066 0.17680682
0.072636515 0.041681893 -0.011564226 0.08538985 0.045745995 0.07870474 0.1281524 0.07626806
-0.1447708 -0.12518485 0.0024417376 -0.19088303 0.052504826 -0.0023694772 -0.11186631 -0.2959031
-0.22071789 -0.13984151 -0.27058864 -0.2144496 0.020596445 -0.018083425 -0.23683102 0.09084761
-0.034775563 -0.06149353 0.10364627 -0.060330287 -0.009350867 0.13376658 0.20544115 0.0069513978
-0.10243262 0.0046860445 0.0064809276 0.0065845344 0.22794056 0.14368612 -0.083737195 0.042222496
0.009977837 0.08649259 -0.1856804 -0.29327357 0.07770033 0.14909577 0.0010506002 0.06836007
0.09894504 0.105905354 -0.042184718 -0.027209118 0.027545933 -0.10232077 -0.010831287 0.024862822
-0.104020365 -0.094528794 0.11023707 -0.048623875 -0.017020367 -0.11366448 0.16647457 0.029144365
-0.047708448 0.07394201 -0.09432705 -0.022224626 -0.117219225 0.04881026 0.0460537 0.0022900112
-0.037271164 -0.2704115 -0.039780047 0.059126996 -0.118442036 -0.030385409 -0.068147086 -0.13699396
-0.011669717 -0.18809973 -0.26014456 0.21793665 -0.039788995 -0.41734803 -0.020369098 -0.010432334
0.03948101 -0.025104765 0.035634153 -0.1625477 0.0791939 -0.1205292 -0.034354463 0.06716481
-0.028601358 -0.093073696 0.011675395 0.046439886 0.09682946 0.0020370183 0.21315174 -0.18938497
-0.092507936 0.12142075 -0.18439272 0.08142413 0.016178383 -0.07206457 0.22263655 0.13227296
-0.1689004 0.057438042 0.090315685 0.11813743 -0.14575918 -0.07657258 0.15638821 -0.032392234
-0.060218196 0.3345009 -0.06816457 -0.04310629 0.09472206 -0.026112394 -0.013542187 0.102399394
-0.041603133 0.037989084 -0.012716444 0.06144039 0.044754818 -0.07125694 -0.0509076 -0.144828
-0.122889355 -0.07301199 -0.10163361 -0.18257217 -0.042266175 -0.06062407 -0.1269092 0.024946257
0.022956438 -0.1462798 0.040700283 -0.14155872 -0.32306984 0.10532223 0.067466974 0.05158824
0.050224975 0.02838718 0.09315015 -0.10238449 -0.026150296 -0.0034101882 0.106704384 0.15113129
0.18508302 0.115672745 0.19892423 0.21894968 0.18515742 0.07259713 0.14847998 -0.046262503
0.009143611 0.0834577 -0.07819556 -0.0077503156 -0.11114789 -0.09901878 -0.19179593 0.0077557527
-0.1150188 -0.0105825495 0.13896161 -0.009826009 0.1438176 0.14746019 0.0897232 0.3145791
0.12902072 -0.018758658 -0.035616606 0.05129085 -0.13059384 0.058247346 -0.0071137063 -0.15404351
0.062700905 0.19264714 -0.077815816 -0.064591214 -0.1060498 -0.040813275 -0.037596844 -0.04671496
-0.05441277 -0.10868071 -0.043333147 0.19461785 -0.008752531 0.012295567 0.11138328 0.20413388
-0.07411464 0.036579493 0.015096485 -0.1714235 0.07469472 0.23477067 0.06968716 0.029607393
00000000: 9a69 b5bd 2392 98be 400f 32be 9c44 edbb
00000010: cd10 cbbc 0ce9 3fbd 6bed 9f3d 52c3 b9bd
00000020: f19b fbbb 378b 0dbe 0c32 7f3d 1ce1 103e
00000030: 6275 893e 49c5 be3d 0266 0ebe c877 5b3d
00000040: 4219 553e beac ad3d 2031 babd 6311 b5bd
00000050: 84c8 f7bd e27d 8dbe ca05 e43c d059 0f3e
00000060: abf3 d73c 8626 67bc f644 a4b9 1247 703d
00000070: 5d2f 39be ef75 bebd d42c ddbd 0823 073d
00000080: d28d 88bd 4562 293d b5eb 57bd b43f 42bd
00000090: 7805 373e 9204 9e3e 2aaf 823d d90c 353e
000000a0: 74c2 943d a2ba 2a3d e177 3dbc e0e0 ae3d
000000b0: 2760 3b3d f32f a13d 623a 033e 6e32 9c3d
000000c0: cc3e 14be 7530 00be 8f05 203b d776 43be
000000d0: 4d0f 573d 3b49 1bbb 2a1a e5bd 9c80 97be
000000e0: df03 62be 9d32 0fbe 988a 8abe ad98 5bbe
000000f0: e0b9 a83c b123 94bc d583 72be 500e ba3d
00000100: d270 0ebd a4e0 7bbd 7f44 d43d e41c 77bd
00000110: 6134 19bc 1bfa 083e 2a5f 523e 8dc8 e33b
00000120: 32c8 d1bd 648d 993b f65d d43b 14c3 d73b
00000130: 4069 693e 7422 133e 687e abbd 7ff1 2c3d
00000140: 157a 233c 0723 b13d 0123 3ebe f427 96be
00000150: 5a21 9f3d 90ac 183e 4bb4 893a 5d00 8c3d
00000160: b2a3 ca3d e8e4 d83d e2c9 2cbd a8e5 debc
00000170: 02a8 e13c 8d8d d1bd b675 31bc 1ead cb3c
00000180: a108 d5bd 5098 c1bd f9c3 e13d d429 47bd
00000190: 4c6e 8bbc ecc8 e8bd 4f78 2a3e 2ac0 ee3c
000001a0: ef69 43bd e96e 973d 8a2e c1bd 6b10 b6bc
000001b0: a210 f0bd 44ed 473d cea2 3c3d 0314 163b
000001c0: a6a9 18bd 6073 8abe 67f0 22bd 262f 723d
000001d0: bd91 f2bd d2ea f8bc b390 8bbd 2548 0cbe
000001e0: 5732 3fbc 379d 40be ab31 85be c92a 5f3e
000001f0: c9f9 22bd a4ae d5be 18dd a6bc 61ec 2abc
00000200: d7b6 213d 82a8 cdbc 1ef5 113d e772 26be
00000210: 6930 a23d 03d8 f6bd 44b7 0cbd b48d 893d
00000220: 654d eabc 6c9d bebd 284a 3f3c c037 3e3d
00000230: 864e c63d 7f7f 053b 7344 5a3e 22ee 41be
00000240: cd74 bdbd 71ab f83d 72d1 3cbe b2c1 a63d
00000250: 8788 843c 9796 93bd d6fa 633e 9072 073e
00000260: 3af4 2cbe 2744 6b3d 6ef7 b83d 09f2 f13d
00000270: e541 15be 16d2 9cbd 3b24 203e b8ad 04bd
00000280: 5ba7 76bd b443 ab3e de99 8bbd 3990 30bd
00000290: a4fd c13d a9e9 d5bc 0de0 5dbc c6b6 d13d
000002a0: 0c68 2abd 719a 1b3d a258 50bc eba8 7b3d
000002b0: d450 373d 29ef 91bd 7d84 50bd cb4d 14be
000002c0: 6aad fbbd 4f87 95bd 4825 d0bd 33f4 3abe
000002d0: 4c1f 2dbd f250 78bd 7cf4 01be 185c cc3c
000002e0: 240f bc3c 5fca 15be 57b5 263d c5f4 10be
000002f0: 6969 a5be 2eb3 d73d 202c 8a3d 314e 533d
00000300: b4b8 4d3d 3b8c e83c 81c5 be3d f6ae d1bd
00000310: 2539 d6bc 777d 5fbb d487 da3d 29c2 1a3e
00000320: 6786 3d3e d5e5 ec3d cbb2 4b3e 5834 603e
00000330: e899 3d3e cead 943d 230b 183e c07d 3dbd
00000340: 16cf 153c dfeb aa3d fe24 a0bd 5cf6 fdbb
00000350: 81a1 e3bd 5cca cabd 2766 44be f823 fe3b
00000360: fa8e ebbd 6e62 2dbc f44b 0e3e 45fd 20bc
00000370: ec44 133e ceff 163e ccc0 b73d 8310 a13e
00000380: 021e 043e c2ab 99bc b8e2 11bd 5b16 523d
00000390: 64ba 05be c594 6e3d 181a e9bb 95bd 1dbe
000003a0: 5569 803d 4b45 453e e65d 9fbd 6648 84bd
000003b0: a330 d9bd d22b 27bd 26ff 19bd 3058 3fbd
000003c0: eddf 5ebd fe93 debd 197e 31bd e749 473e
000003d0: c766 0fbc 5973 493c eb1c e43d 7908 513e
000003e0: 6bc9 97bd 61d4 153d 3f57 773c a489 2fbe
000003f0: 8cf9 983d b967 703e 24b8 8e3d 348b f23c

layer1.0.bn2.weight f4 [16]
0.4652773 0.4328886 0.37897262 0.27779546 0.8506044 0.264384 0.64653146 0.6461436
0.88386774 0.28862774 0.81607455 0.47317806 0.16221853 0.72354 0.68612915 0.9001658
00000000: d438 ee3e 93a3 dd3e b308 c23e 353b 8e3e
00000010: 36c1 593f 575d 873e 1683 253f ab69 253f
00000020: 2845 623f 04c7 933e 43ea 503f 6544 f23e
00000030: 9d1c 263e eb39 393f 29a6 2f3f 4471 663f

layer1.0.bn2.bias f4 [16]
0.079602405 -0.06524276 -0.021762503 0.025096543 0.26503226 0.008236008 0.08564423 0.18135123
0.2049646 -0.04607776 0.15528442 -0.011614856 -0.07946769 0.1201496 0.28580594 -0.19745928
00000000: 9606 a33d ff9d 85bd 4747 b2bc 4497 cd3c
00000010: 4fb2 873e 52f0 063c 3e66 af3d 23b4 393e
00000020: 3de2 513e 09bc 3cbd e102 1f3e 3d4c 3ebc
00000030: f5bf a2bd fe10 f63d 2855 923e c432 4abe

layer1.0.bn2.running_mean f4 [16]
-0.679329 0.55755186 -0.23271315 0.75483346 0.1252347 -0.35365424 -0.38704345 -0.22339891
-0.3940396 0.32991198 -0.24627915 -0.70025593 0.03236766 -0.3840696 0.4976723 -0.18023208
00000000: 81e8 2dbf b8bb 0e3f 5b4c 6ebe c43c 413f
00000010: 863d 003e 2b12 b5be 8f2a c6be afc2 64be
00000020: 8fbf c9be 39ea a83e 9a30 7cbe f943 33bf
00000030: f493 043d c5a4 c4be e7ce fe3e c28e 38be

layer1.0.bn2.running_var f4 [16]
0.3186291 0.35077193 0.21593423 0.20518301 0.3363875 0.21764751 0.6654623 0.23441334
0.3330549 0.26865852 0.35745555 0.25086197 0.2732526 0.3739951 0.277511 0.39730683
00000000: 5a23 a33e 6198 b33e dd1d 5d3e 7f1b 523e
00000010: fb3a ac3e fdde 5e3e bd5b 2a3f 0d0a 703e
00000020: 2c86 aa3e 9c8d 893e 6a04 b73e fb70 803e
00000030: c4e7 8b3e 497c bf3e ec15 8e3e cd6b cb3e

layer1.1.conv1.weight f4 [16, 16, 3, 3]
-0.09036458 -0.14658427 -0.15215772 -0.16456276 -0.26247954 0.35715285 -0.101072185 0.13839845
0.11836598 0.054038227 0.10224595 -0.13425784 -0.04676504 0.1100466 -0.21164906 0.04675697
0.08066744 -0.28434557 0.0316388 -0.079984546 -0.18589838 0.02051581 -0.1954883 0.12335887
0.011928403 -0.23494929 0.106697656 -0.16024595 0.014413298 0.05520671 0.09677589 0.09100291
-0.0007006536 0.07446612 0.0012114294 0.10928223 -0.015095366 -0.008730344 0.016921328 -0.13610707
0.2732972 -0.45678645 0.098211356 -0.016264316 -0.05305498 -0.07030213 -0.12834632 0.0034530058
-0.025502156 -0.042914994 -0.06340058 -0.023848755 0.10576008 0.0072708763 -0.11461065 -0.34072757
-0.12101408 -0.23366165 -0.28050506 0.053381495 -0.35088646 0.12662128 0.001164069 0.023964075
0.15641192 -0.19555637 0.116329856 -0.21487264 -0.067330256 0.055081174 -0.06530318 -0.076884076
-0.032052267 0.22593741 0.0031293223 0.08827302 0.17100868 -0.06856484 0.20283972 -0.11883568
-0.0757965 0.08243306 0.024372142 -0.02906362 0.0345667 -0.20201913 0.17172408 -0.061504304
0.07005856 0.17863417 -0.043525837 -0.112197444 0.16334827 -0.18595743 -0.067958415 0.24649848
-0.22860499 -0.008647539 0.0822809 0.041267503 -0.003489131 -0.014960397 0.022846295 -0.038462773
0.03909775 0.02556597 -0.050652564 0.06438752 0.15164503 0.20039085 0.06678994 0.051269952
0.022167493 -0.01838644 0.058566473 -0.08789402 0.009472346 0.1635915 0.09526347 -0.061133012
0.046574116 -0.10647912 0.05604187 -0.08277052 0.036731645 0.04665493 -0.047675245 -0.031864744
0.11414158 -0.007588057 -0.05422733 0.055582613 -0.09015762 0.038188864 -0.081090726 0.00972725
0.07988697 -0.036815457 0.019896552 -0.0348291 0.057268474 -0.036671806 -0.05316058 0.07292855
0.18569162 0.19637667 -0.15042205 0.16785368 0.10277658 -0.082156554 -0.099216044 -0.12755659
-0.25432584 -0.17859142 -0.09221613 -0.050227605 -0.1459171 -0.11714456 -0.13278848 0.016190438
-0.13158518 -0.29328772 -0.039124697 0.08585171 -0.18651427 -0.023297923 0.14937617 -0.096022025
-0.07938839 0.1701253 0.012271653 -0.004896196 -0.06923554 -0.0034229965 -0.14624229 -0.16124739
-0.17072387 0.0075817113 -0.018951448 0.057008456 0.030546468 -0.020280613 0.095124766 0.026053758
0.08323087 -0.037155468 0.099945955 0.116029255 -0.06124162 -0.06765453 -0.025058309 0.16290845
-0.0717675 0.049577907 0.008252551 -0.09080019 -0.09574555 -0.044657346 0.11575133 0.14737144
-0.15580486 0.090885386 0.04082349 -0.38081092 0.14487955 0.10343903 -0.13699812 -0.19673392
-0.07511217 -0.14886774 -0.118313976 -0.18745828 0.01708995 0.08176288 0.28261903 0.4436546
-0.021586865 -0.042267706 -0.031631898 0.16780771 0.13749692 0.13184464 0.09706748 -0.002918693
0.16236998 -0.18763618 -0.0199896 0.1035296 -0.1443425 0.047621943 0.07240652 -0.12228429
-0.115060106 -0.07486682 0.14717472 0.040710855 -0.034140896 0.105399154 -0.029119767 -0.108460866
-0.085131794 -0.103112355 0.010198014 -0.06789297 -0.08379767 -0.010833959 0.003992269 0.05337634
0.053157877 -0.05533678 -0.010185133 -0.061223596 -0.28126854 -0.13845499 0.007107728 -0.31115517
00000000: 1111 b9bd 301a 16be 3ccf 1bbe 2483 28be
00000010: b863 86be bddc b63e effe cebd 53b8 0d3e
00000020: dd69 f23d 3057 5d3d 5366 d13d e37a 09be
00000030: b38c 3fbd 1d60 e13d 88ba 58be 3d84 3f3d
00000040: f934 a53d be95 91be b097 013d f0ce a3bd
00000050: 255c 3ebe c610 a83c 162e 48be 93a3 fc3d
00000060: 596f 433c 8c96 70be 4d84 da3d 8417 24be
00000070: c125 6c3c 6e20 623d 7032 c63d bc5f ba3d
00000080: 11ac 37ba b181 983d d3c8 9e3a 5dcf df3d
00000090: 8e52 77bc b709 0fbc 999e 8a3c a75f 0bbe
000000a0: 9ced 8b3e eadf e9be 0923 c93d be3c 85bc
000000b0: 2e50 59bd 90fa 8fbd 386d 03be d34b 623b
000000c0: e6e9 d0bc a2c7 2fbd 2ad8 81bd 775e c3bc
000000d0: be98 d83d 8840 ee3b fdb8 eabd d873 aebe
000000e0: 3bd6 f7bd 0045 6fbe 5c9e 8fbe 8ea6 5a3d
000000f0: 64a7 b3be 02a9 013e ad93 983a 4f50 c43c
00000100: 722a 203e ee3f 48be 593e ee3d 9307 5cbe
00000110: 72e4 89bd cc9c 613d acbd 85bd 6675 9dbd
00000120: 3d49 03bd 235c 673e 5115 4d3b 7cc8 b43d
00000130: e61c 2f3e b96b 8cbd 37b5 4f3e 1f60 f3bd
00000140: 323b 9bbd aad2 a83d 16a8 c73c d416 eebc
00000150: d095 0d3d 1ade 4ebe 70d8 2f3e f0eb 7bbd
00000160: dd7a 8f3d e0eb 363e 2648 32bd c6c7 e5bd
00000170: c544 273e a06b 3ebe c82d 8bbd 196a 7c3e
00000180: 6d17 6abe 68ae 0dbc e382 a83d 1d08 293d
00000190: e8a9 64bb 741c 75bc 2728 bb3c 248b 1dbd
000001a0: f624 203d ba6f d13c 1079 4fbd 9bdd 833d
000001b0: d648 1b3e 4233 4d3e 2ac9 883d 7100 523d
000001c0: 9a98 b53c 299f 96bc 66e3 6f3d c801 b4bd
000001d0: e631 1b3c 8884 273e 7f19 c33d 9c66 7abd
000001e0: 80c4 3e3d ba11 dabd 298c 653d 9783 a9bd
000001f0: ec73 163d 3d19 3f3d 1e47 43bd 9b84 02bd
00000200: 10c3 e93d 3ca5 f8bb 7a1d 5ebd 98aa 633d
00000210: 8fa4 b8bd ed6b 1c3d e512 a6bd 0b5f 1f3c
00000220: c89b a33d cecb 16bd 18fe a23c f5a8 0ebd
00000230: 5992 6a3d 2d35 16bd e9be 59bd 905b 953d
00000240: f225 3e3e f716 493e 3d08 1abe d6e1 2b3e
00000250: 877c d23d b241 a8bd c831 cbbd 329e 02be
00000260: ff36 82be abe0 36be cfdb bcbd 76bb 4dbd
00000270: 4b6b 15be 7de9 efbd b4f9 07be cfa1 843c
00000280: 44be 06be cf29 96be 3841 20bd 05d3 af3d
00000290: 99fd 3ebe 49db bebc 11f6 183e 32a7 c4bd
000002a0: 6196 a2bd 5435 2e3e 0b0f 493c 4570 a0bb
000002b0: 5dcb 8dbd 5a54 60bb 8ac0 15be 091e 25be
000002c0: 3dd2 2ebe 0170 f83b 1140 9bbc b381 693d
000002d0: 963c fa3c 8723 a6bc c6d0 c23d b16e d53c
000002e0: f274 aa3d 5530 18bd 77b0 cc3d bfa0 ed3d
000002f0: 7ed8 7abd 758e 8abd 1547 cdbc 79d1 263e
00000300: d7fa 92bd 3412 4b3d b535 073c 73f5 b9bd
00000310: 3e16 c4bd 9fea 36bd 090f ed3d 8ae8 163e
00000320: 4f8b 1fbe 1e22 ba3d 8836 273d a6f9 c2be
00000330: 4e5b 143e d8d7 d33d 3c49 0cbe 9e74 49be
00000340: 69d4 99bd c970 18be 994e f2bd 10f5 3fbe
00000350: 3900 8c3c 4c73 a73d 71b3 903e b226 e33e
00000360: f0d6 b0bc e720 2dbd 7390 01bd c9d5 2b3e
00000370: fecb 0c3e 4802 073e 51cb c63d 8b47 3fbb
00000380: 5144 263e b323 40be 3bc1 a3bc 5407 d43d
00000390: 85ce 13be 3a0f 433d df49 943d 3070 fabd
000003a0: a2a4 ebbd c653 99bd f8b4 163e 6dc0 263d
000003b0: 53d7 0bbd 83db d73d 948c eebc bb20 debd
000003c0: 9459 aebd 922c d3bd 9215 273c 780b 8bbd
000003d0: 1d9e abbd eb80 31bc 94d1 823b 26a1 5a3d
000003e0: 13bc 593d d2a8 62bd 8bdf 26bc 98c5 7abd
000003f0: 6e02 90be 25c7 0dbe f2e7 e83b bb4f 9fbe

layer1.1.bn1.weight f4 [16]
0.35316333 0.26789248 0.83127993 0.25572565 0.5255627 0.29010588 0.83229 0.60855263
0.7339882 0.24828821 0.68704677 0.38523573 0.6383251 0.61012393 0.58156013 0.49940696
00000000: d3d1 b43e 3429 893e c3ce 543f 79ee 823e
00000010: 478b 063f c288 943e f510 553f 1bca 1b3f
00000020: a7e6 3b3f 443f 7e3e 4ce2 2f3f 9e3d c53e
00000030: 4669 233f 1531 1c3f 20e1 143f 45b2 ff3e

layer1.1.bn1.bias f4 [16]
-0.067584865 -0.09805899 0.17487463 -0.06737973 -0.14375472 -0.081900015 -0.12868115 -0.1175625
-0.2204886 -0.0729728 -0.07073154 -0.112692475 -0.078842446 -0.054794796 -0.015542282 -0.06282496
00000000: ef69 8abd 27d3 c8bd 5612 333e 62fe 89bd
00000010: 7034 13be 32bb a7bd fec4 03be 9cc4 f0bd
00000020: c3c7 61be c372 95bd b3db 90bd 50cb e6bd
00000030: 2678 a1bd 8270 60bd 0ea5 7ebc 5faa 80bd

layer1.1.bn1.running_mean f4 [16]
-0.66711515 -0.42540905 -2.297215 -1.3400722 0.419415 -1.6117474 0.54381746 -0.496164
0.17098825 -1.07289 -0.7652159 1.386356 -0.84987366 -1.5489748 -0.5555062 -0.5882216
00000000: 0fc8 2abf 37cf d9be 9205 13c0 7c87 abbf
00000010: 90bd d63e bd4d cebf 9f37 0b3f 3509 febe
00000020: 8b17 2f3e 7654 89bf 30e5 43bf 1d74 b13f
00000030: 5291 59bf ce44 c6bf a835 0ebf b195 16bf

layer1.1.bn1.running_var f4 [16]
1.7765081 1.0642619 1.5889498 1.372272 1.215456 0.94575775 1.9868977 1.0077806
1.4623913 1.1857058 2.229173 0.91802263 2.1318102 2.3075364 0.95093304 1.5579486
00000000: 9e64 e33f bc39 883f b562 cb3f 9ca6 af3f
00000010: 1094 9b3f 2e1d 723f aa52 fe3f f4fe 803f
00000020: a32f bb3f 35c5 973f c5aa 0e40 8803 6b3f
00000030: 946f 0840 adae 1340 5970 733f dc6a c73f

layer1.1.conv2.weight f4 [16, 16, 3, 3]
0.11784118 0.23265272 0.06628383 0.09081185 0.22440666 0.042233597 0.07085705 0.09731654
0.020928612 0.055795446 -0.099124216 -0.043478712 -0.10935563 -0.08223542 0.07400422 -0.16166711
-0.0285795 -0.055475064 -0.10876341 -0.17940672 0.08619511 -0.16614798 -0.18161102 0.12496182
0.0010645697 0.1948498 0.113636225 -0.029563414 -0.096214406 -0.0009872147 -0.10675022 -0.2753283
0.034697164 -0.15009834 -0.14013448 0.30915993 0.04251055 0.056448728 -0.034557402 0.007951973
-0.0023045687 -0.19108693 -0.0028670188 -0.0052608526 -0.045592826 -0.16813172 -0.07421895 0.009220327
-0.0948413 0.12781626 0.22605944 0.0667169 0.084014356 0.056777462 -0.07591674 0.014480281
0.03033719 -0.12269489 -0.076689444 0.022836244 0.08862665 -0.1495903 -0.13236442 -0.03091109
-0.18314157 -0.0375161 -0.14111106 -0.096913815 -0.10169092 -0.18738125 -0.104181536 -0.15566105
-0.20659205 -0.18449904 -0.084011875 0.14353019 0.07533427 -0.06250555 0.14252189 0.09310815
0.014676655 -0.15576762 -0.03508646 -0.12468207 -0.12746036 0.048199642 0.018557208 0.009479194
0.1252129 -0.007301087 -0.04024979 -0.06976929 0.004766416 -0.02631025 -0.017803172 -0.169211
0.048762757 0.01679152 -0.115805954 -0.06490199 -0.032976504 -0.0924949 -0.01659238 0.0385651
0.20890424 0.11117136 0.071403705 0.033729445 0.061776314 -0.0024078046 -0.15817715 -0.06258087
-0.023760164 -0.03564571 -0.14901564 -0.2277168 -0.09422017 -0.14586475 0.053736027 0.16543289
-0.13094956 -0.10624365 -0.24449357 -0.22106217 -0.0743408 -0.005407842 -0.032766573 -0.07299681
0.033762198 -0.035436682 -0.13666421 0.046130173 -0.12902442 0.03094616 -0.08660149 0.26344663
0.31489387 0.1840873 0.21262524 0.070557326 -0.0045717927 0.023308802 0.1081755 -0.1549035
-0.16524719 -0.20747006 -0.09851712 -0.06952432 -0.12150787 -0.09172181 0.08785893 -0.124102585
-0.09060544 -0.16932105 -0.15022795 -0.0017571447 -0.197424 -0.2997314 -0.0652694 -0.06531678
-0.11013698 0.11382808 -0.031855613 -0.055726953 -0.030391717 -0.028563494 -0.023704452 0.0002621089
0.017790372 0.03808725 0.02686821 0.103930585 -0.0027459622 -0.059434306 -0.080003746 -0.017693728
-0.16968362 0.033779725 0.05868863 0.033883963 -0.02659749 0.04777001 -0.07294285 0.025168166
-0.03985218 -0.025265306 0.12915522 0.07239068 -0.022199174 0.04168682 0.02365775 -0.018331064
0.27421588 0.24110912 -0.0612923 0.33233875 0.27666292 0.09083359 -0.13871437 -0.059068095
0.1277176 0.019195192 -0.05117018 0.13173422 -0.03435996 0.046141423 0.0076404978 0.03177149
0.12647532 -0.0124244355 0.1736592 0.15439741 0.2073221 0.00862399 0.103778236 0.2513753
-0.18989004 -0.25475082 -0.18195853 -0.16983333 -0.20258662 -0.08989978 -0.023047807 -0.000546164
-0.14927684 -0.0017968541 -0.07693734 0.012522574 -0.04315114 0.024749648 0.2687872 -0.084494606
0.21113986 0.22357397 -0.11064096 -0.13334048 -0.07658118 -0.115176134 -0.047204506 0.0077237184
-0.07683162 0.046962596 -0.13130926 0.08925876 0.05786182 0.13932036 0.09335089 0.009381055
0.12719117 -0.004440797 -0.021267202 0.0061524617 0.14951687 0.080115415 -0.042533565 0.094086096
00000000: b756 f13d 843c 6e3e d1bf 873d 90fb b93d
00000010: dcca 653e 23fd 2c3d 801d 913d e54d c73d
00000020: 7b72 ab3c c489 643d a301 cbbd bc16 32bd
00000030: d8f5 dfbd 0b6b a8bd 868f 973d 108c 25be
00000040: 8e1f eabc d239 63bd 5abf debd 65b6 37be
00000050: 1087 b03d b222 2abe 3df8 39be fceb ff3d
00000060: 0889 8b3a b586 473e 1cba e83d f92e f2bc
00000070: 0f0c c5bd 6e65 81ba dc9f dabd d5f7 8cbe
00000080: 9d1e 0e3d 61b3 19be 6a7f 0fbe 364a 9e3e
00000090: 8b1f 2e3d c836 673d 108c 0dbd fe48 023c
000000a0: 3f08 17bb 4bac 43be 98e4 3bbb 3b63 acbb
000000b0: 8bbf 3abd b92a 2cbe 1b00 98bd db10 173c
000000c0: 283c c2bd 44e2 023e 207c 673e dfa2 883d
000000d0: b80f ac3d 7c8f 683d 3c7a 9bbd b33e 6d3c
000000e0: b385 f83c 7547 fbbd 5b0f 9dbd 1313 bb3c
000000f0: e481 b53d 332e 19be 8a8a 07be 4139 fdbc
00000100: 7789 3bbe 7baa 19bd 6b7f 10be c07a c6bd
00000110: 5443 d0bd dfe0 3fbe 215d d5bd 9c65 1fbe
00000120: de8c 53be 51ed 3cbe 6b0e acbd 94f9 123e
00000130: db48 9a3d e902 80bd 42f1 113e 7caf be3d
00000140: 5a76 703c 8c81 1fbe d2b6 0fbd 5059 ffbd
00000150: f884 02be fd6c 453d 4905 983c 9f4e 1b3c
00000160: cf37 003e f53d efbb f7dc 24bd 34e3 8ebd
00000170: 982f 9c3b 9888 d7bc f5d7 91bc a645 2dbe
00000180: 75bb 473d 5f8e 893c ac2b edbd 56eb 84bd
00000190: 5f12 07bd f76d bdbd beec 87bc 70f6 1d3d
000001a0: feea 553e cfad e33d 1b3c 923d e327 0a3d
000001b0: 2909 7d3d 42cc 1dbb 31f9 21be 662a 80bd
000001c0: ada4 c2bc 3c01 12bd 8e97 18be 982e 69be
000001d0: 81f6 c0bd 925d 15be 4f1a 5c3d 3d67 293e
000001e0: a417 06be 4596 d9bd 865c 7abe 1f5e 62be
000001f0: fd3f 98bd 4434 b1bb 3e36 06bd 5a7f 95bd
00000200: 3b4a 0a3d 0e26 11bd b4f1 0bbe fef2 3c3d
00000210: fa1e 04be cd82 fd3c 1f5c b1bd 7ae2 863e
00000220: c539 a13e 6281 3c3e 6eba 593e 5c80 903d
00000230: face 95bb 1af2 be3c 1e8b dd3d 069f 1ebe
00000240: 8f36 29be 0873 54be 58c3 c9bd c462 8ebd
00000250: 1ed9 f8bd a5d8 bbbd 62ef b33d 7f29 febd
00000260: 588f b9bd 7f62 2dbe 5bd5 19be fe4f e6ba
00000270: 8429 4abe 6576 99be f7ab 85bd cec4 85bd
00000280: 7f8f e1bd b21e e93d 087b 02bd f241 64bd
00000290: 0df8 f8bc fdfd e9bc d72f c2bc a96b 8939
000002a0: 1dbd 913c 6001 1c3d b81a dc3c 8fd9 d43d
000002b0: 9af5 33bb 6371 73bd 01d9 a3bd 70f2 90bc
000002c0: 8bc1 2dbe 9c5c 0a3d 7d63 703d e9c9 0a3d
000002d0: fbe2 d9bc 7caa 433d 1063 95bd 782d ce3c
000002e0: 0a3c 23bd 30f9 cebc 4441 043e 9141 943d
000002f0: 0bdb b5bc cdbf 2a3d e6cd c13c 072b 96bc
00000300: 0666 8c3e 4fe5 763e a20d 7bbd 4e28 aa3e
00000310: c3a6 8d3e f606 ba3d 240b 0ebe 63f1 71bd
00000320: 67c8 023e 3c3f 9d3c d397 51bd 56e5 063e
00000330: 08bd 0cbd cafe 3c3d 245d fa3b d222 023d
00000340: bf82 013e dc8f 4bbc b8d3 313e 5b1a 1e3e
00000350: 3f4c 543e a34b 0d3c af89 d43d 43b4 803e
00000360: 8972 42be b36e 82be 5653 3abe cae8 2dbe
00000370: de72 4fbe 601d b8bd c1ce bcbc 722c 0fba
00000380: 07dc 18be 6b84 ebba 5391 9dbd 7b2b 4d3c
00000390: 40bf 30bd c6bf ca3c 7a9e 893e 820b adbd
000003a0: 0c35 583e 93f0 643e ba97 e2bd 688a 08be
000003b0: 98d6 9cbd 77e1 ebbd 8359 41bd 3f17 fd3b
000003c0: e559 9dbd da5b 403d ef75 06be 4ccd b63d
000003d0: 8400 6d3d ffa9 0e3e c02e bf3d ffb2 193c
000003e0: 673e 023e 1b84 91bb 8e38 aebc 979a c93b
000003f0: f31a 193e 8d13 a43d ad37 2ebd 36b0 c03d

layer1.1.bn2.weight f4 [16]
0.61096144 0.3032528 0.38661134 0.7601823 0.79194546 0.11170041 0.90603375 0.8774909
0.37425748 0.42383397 0.49987328 0.4369661 0.6218783 0.28245223 0.7227061 0.27538174
00000000: f867 1c3f f343 9b3e ecf1 c53e 4f9b 423f
00000010: f0bc 4a3f 2fc3 e43d d4f1 673f 3ea3 603f
00000020: ad9e bf3e c400 d93e 64ef ff3e 05ba df3e
00000030: 6b33 1f3f 949d 903e 4403 393f d6fe 8c3e

layer1.1.bn2.bias f4 [16]
-0.007733378 0.0401065 0.13846794 -0.037475213 -0.19765106 0.0057928762 -0.18997823 -0.022687543
-0.013042822 0.16371903 0.10486605 0.14736359 0.043847635 0.036341198 -0.015285924 -0.021424036
00000000: 4768 fdbb b746 243d 8aca 0d3e 9c7f 19bd
00000010: 0a65 4abe 2bd2 bd3b a789 42be 3adb b9bc
00000020: 8fb1 55bc f6a5 273e 03c4 d63d 7be6 163e
00000030: 9499 333d 82da 143d d071 7abc 7681 afbc

layer1.1.bn2.running_mean f4 [16]
-0.5487336 0.12099521 -0.010225202 0.13046671 -0.06991579 -0.13737214 -0.114588454 -0.7745231
0.32550934 0.019983444 0.3514207 -0.39438987 -0.6288283 0.54456455 -0.100236125 0.19887994
00000000: ce79 0cbf 56cc f73d 9b87 27bc 1199 053e
00000010: 0230 8fbd 48ab 0cbe 5aad eabd 2547 46bf
00000020: 29a9 a63e 52b4 a33c 6aed b33e 78ed c9be
00000030: e4fa 20bf 9568 0b3f 9948 cdbd 2fa7 4b3e

layer1.1.bn2.running_var f4 [16]
0.15615791 0.24466503 0.31515023 0.2965791 0.19610588 0.23867057 0.39074972 0.41256303
0.2264946 0.23690361 0.20235747 0.37894806 0.4029634 0.24098168 0.20690064 0.2431554
00000000: dce7 1f3e 7889 7a3e 5f5b a13e 37d9 973e
00000010: fbcf 483e 0f66 743e 5910 c83e 763b d33e
00000020: 33ee 673e dc96 723e cc36 4f3e 7b05 c23e
00000030: 3851 ce3e e7c3 763e c3dd 533e bbfd 783e

layer2.0.conv1.weight f4 [32, 16, 3, 3]
-0.10592268 0.11407098 -0.0001091895 -0.14210902 0.13431007 0.014122644 -0.14588018 0.067200206
-0.027095981 0.034624238 -0.062448204 -0.07697248 -0.0835498 0.039655555 0.005140322 -0.0375768
0.06896235 -0.07895491 -0.08772504 -0.13185155 0.034196187 -0.014986564 0.062733814 -0.0049312804
-0.048960507 0.031193014 0.0019493266 0.006737187 -0.009487785 0.05345936 0.020073446 -0.13022591
0.04875521 -0.0800469 0.044491697 0.016759168 0.081699446 -0.31150824 0.1073058 0.2838493
-0.5886258 0.3214404 0.1518832 -0.38799715 0.19065765 -0.033088576 0.15834314 -0.022388134
-0.085071474 0.1291453 -0.024347931 -0.015943453 0.092947625 -0.024774792 -0.1877798 0.31530032
-0.30138826 -0.24044187 0.32018343 -0.17051227 -0.16913044 0.12843026 -0.09769373 0.0025355108
-0.0013887967 -0.016036544 0.03982061 -0.021644711 0.05386145 -0.05091093 0.022385076 0.09346137
0.003571498 -0.16643935 0.13119535 0.071327105 -0.17191674 0.08956935 0.13501595 -0.15674442
0.023711981 -0.12316263 0.034806605 0.05160756 0.0045599123 0.03478768 0.024554374 -0.07202864
0.011643029 -0.12041793 0.019379025 0.021774048 0.02518923 -0.08342607 0.0674974 -0.026576055
-0.111340076 0.06460066 0.10957318 -0.030677136 -0.026955659 0.033471607 -0.05717448 -0.09247247
0.026380513 -0.06530684 0.033341993 0.051907774 -0.005609143 0.0647693 -0.100666784 0.06816182
0.059165858 -0.034648627 -0.039275732 0.08085971 0.004665529 -0.021618465 0.03013685 -0.06343793
0.036900744 0.027024925 -0.10747923 0.047385275 -0.054255176 -0.03583275 -0.054129787 0.21735834
-0.1916782 -0.03695661 0.12634346 -0.18502857 0.009635036 0.11619178 -0.090644404 0.0030441482
-0.04736219 0.027115025 0.050275642 -0.062094066 0.0344977 -0.07526178 -0.07320625 0.020938836
-0.061099514 -0.030122783 0.033495873 0.054233532 -0.10263317 -0.09296314 -0.033568278 -0.062888004
-0.03761595 -0.049870726 0.08501668 0.09554911 -0.01557568 -0.012784946 0.11835793 -0.02770171
-0.1027494 0.061873168 -0.023960676 0.07851871 -0.009307214 -0.017641434 0.033242505 0.045703575
0.02873064 -0.047142252 0.103562035 0.04114405 -0.09015919 -0.099026464 -0.11927266 -0.17585011
-0.13033313 0.008857659 -0.14011434 -0.106164 -0.08744652 -0.15584438 -0.14906757 0.007297101
-0.12591247 -0.07693061 0.078977995 -0.05237286 -0.031641785 -0.041747186 -0.081650056 -0.11775891
-0.087349325 -0.09996338 -0.121731654 -0.20957683 -0.02986432 -0.04840528 -0.050348192 -0.053770784
-0.052063726 -0.08253977 -0.12430133 -0.103829324 -0.0043098 -0.13391007 -0.0020979845 0.009026384
-0.06347493 -0.110248655 -0.027727786 -0.14580475 -0.074310265 -0.097719006 -0.107515655 -0.08527842
-0.020742444 -0.048769437 0.01891116 -0.12937243 -0.19379562 -0.09669506 -0.19841854 -0.27127984
-0.098387636 0.1398543 0.17726596 0.1311997 0.053015582 0.05588297 0.07586996 -0.032870825
-0.015221674 0.031136995 0.20879924 0.15000722 -0.07405978 0.18029672 0.18507937 0.11501856
0.15077956 0.19772513 0.03710654 0.0027697566 0.120148994 0.08643528 0.002979257 0.11049555
0.008007518 -0.016641967 -0.011097557 0.016020082 -0.033331275 -0.12908906 -0.22232854 0.08285647
00000000: fded d8bd 0c9e e93d abfc e4b8 0785 11be
00000010: 9488 093e aa62 673c 9d61 15be 43a0 893d
00000020: 64f8 ddbc 25d2 0d3d b0c9 7fbd bfa3 9dbd
00000030: 281c abbd dd6d 223d 2570 a83b 21ea 19bd
00000040: 223c 8d3d 1db3 a1bd 30a9 b3bd 1804 07be
00000050: 4d11 0c3d 358a 75bc 967a 803d 9496 a1bb
00000060: d08a 48bd 7e88 ff3c 8c80 ff3a 9fc3 dc3b
00000070: a872 1bbc 34f8 5a3d 1171 a43c f159 05be
00000080: 8bb3 473d a1ef a3bd ed3c 363d 864a 893c
00000090: 0a52 a73d 027e 9fbe 25c3 db3d b254 913e
000000a0: 2eb0 16bf d693 a43e 4587 1b3e 90a7 c6be
000000b0: c23b 433e e387 07bd b424 223e 5267 b7bc
000000c0: f439 aebd aa3e 043e 5075 c7bc d89b 82bc
000000d0: 535b be3d 81f4 cabc 5949 40be 0b6f a13e
000000e0: 904f 9abe 6536 76be 15ef a33e c59a 2ebe
000000f0: 8830 2dbe 3983 033e a613 c8bd d02a 263b
00000100: 4908 b6ba 125f 83bc f01a 233d 4050 b1bc
00000110: d39d 5c3d fb87 50bd e860 b73c ad68 bf3d
00000120: cb0f 6a3b 146f 2abe 1358 063e f213 923d
00000130: f10a 30be 2370 b73d 9f41 0a3e 9c81 20be
00000140: a13f c23c b03c fcbd 5f91 0e3d 7362 533d
00000150: 516b 953b 877d 0e3d 4126 c93c c083 93bd
00000160: 67c2 3e3c ad9d f6bd c3c0 9e3c 7d5f b23c
00000170: a559 ce3c 4adb aabd 143c 8a3d 07b6 d9bc
00000180: 4406 e4bd 5a4d 843d e767 e03d 9e4e fbbc
00000190: 1dd2 dcbc 8619 093d ca2f 6abd 3562 bdbd
000001a0: f21b d83c 98bf 85bd 9d91 083d 3f9d 543d
000001b0: e7cc b7bb c4a5 843d 632a cebd 6d98 8b3d
000001c0: e657 723d b8eb 0dbd 97df 20bd c799 a53d
000001d0: 4be1 983b 3519 b1bc 8ee1 f63c bfeb 81bd
000001e0: 3c25 173d 6063 dd3c 121e dcbd 1017 423d
000001f0: ad3a 5ebd 5dc5 12bd 32b7 5dbd 2f93 5e3e
00000200: 4a47 44be d05f 17bd 2e60 013e 2178 3dbe
00000210: 45dc 1d3c f5f5 ed3d c6a3 b9bd 5580 473b
00000220: dbfe 41bd 5420 de3c d5ed 4d3d 5956 7ebd
00000230: 764d 0d3d d922 9abd 29ed 95bd ec87 ab3c
00000240: 7c43 7abd 0ec4 f6bc f832 093d fb23 5e3d
00000250: 5731 d2bd 7563 bebd e47e 09bd 6dcb 80bd
00000260: 2f13 1abd 3f45 4cbd 3a1d ae3d 40af c33d
00000270: 2331 7fbc f377 51bc a465 f23d b2ee e2bc
00000280: 476e d2bd b86e 7d3d 2e49 c4bc 6bce a03d
00000290: 497d 18bc c584 90bc 4b29 083d ac33 3b3d
000002a0: 855c eb3c 3c18 41bd 5518 d43d aa86 283d
000002b0: 62a5 b8bd 63ce cabd 3945 f4bd 0d12 34be
000002c0: 0c76 05be b71f 113c 227a 0fbe 836c d9bd
000002d0: 2917 b3bd ab95 1fbe 2ba5 18be 851c ef3b
000002e0: 33ef 00be cc8d 9dbd 37bf a13d ed84 56bd
000002f0: d19a 01bd 19ff 2abd 2538 a7bd 952b f1bd
00000300: 34e4 b2bd 9ab9 ccbd 724e f9bd 4f9b 56be
00000310: 05a6 f4bc 9d44 46bd e839 4ebd c13e 5cbd
00000320: c640 55bd 9c0a a9bd b291 febd 78a4 d4bd
00000330: 3939 8dbb b91f 09be 577e 09bb 66e3 133c
00000340: 25ff 81bd 0cca e1bd 6225 e3bc d74d 15be
00000350: fb2f 98bd e720 c8bd 2b31 dcbd 74a6 aebd
00000360: 0fec a9bc 76c2 47bd 94eb 9a3c 357a 04be
00000370: 5c72 46be 0f08 c6bd 3b2e 4bbe 31e5 8abe
00000380: 757f c9bd f735 0f3e 3585 353e 3759 063e
00000390: de26 593d 8be5 643d b661 9b3d 8fa3 06bd
000003a0: 5464 79bc 0313 ff3c 78cf 553e 7e9b 193e
000003b0: a7ac 97bd b49f 383e 7285 3d3e da8e eb3d
000003c0: f565 1a3e 7578 4a3e 07fd 173d ce84 353b
000003d0: ad10 f63d fb04 b13d a33f 433b 7e4b e23d
000003e0: f731 033c bc54 88bc 87d2 35bc 8c3c 833c
000003f0: 6086 08bd ec2f 04be 18aa 63be a7b0 a93d

layer2.0.bn1.weight f4 [32]
0.4596725 0.4264292 0.74013156 0.6782146 0.5725433 0.48077232 0.8162597 0.7976423
0.3404734 0.3570815 0.46006802 0.46582386 0.6781337 0.39970586 0.36075905 0.48076138
0.2557213 0.4405426 0.38273668 0.5959574 0.444666 0.4129089 0.6104906 0.71514535
0.29513928 0.5591196 0.56714123 0.5311848 0.6405508 0.67650664 0.40786675 0.37679124
00000000: 325a eb3e ee54 da3e 4379 3d3f 799f 2d3f
00000010: 3392 123f ca27 f63e 65f6 503f 4932 4c3f
00000020: 8852 ae3e 63d3 b63e 098e eb3e 7780 ee3e
00000030: 2c9a 2d3f 3fa6 cc3e 69b5 b83e 5b26 f63e
00000040: e7ed 823e cd8e e13e 10f6 c33e aa90 183f
00000050: 43ab e33e cc68 d33e 1d49 1c3f c413 373f
00000060: 7f1c 973e 7622 0f3f 2b30 113f bafb 073f
00000070: 23fb 233f 8a2f 2d3f e9d3 d03e c8ea c03e

layer2.0.bn1.bias f4 [32]
-0.09011659 -0.04683779 0.08547025 -0.23171665 -0.12130856 0.10690051 -0.18473347 0.019214934
-0.079368316 -0.09094335 -0.09181269 -0.1000758 -0.09831325 -0.0929885 0.008448707 0.0051714657
-0.0897251 0.06332159 0.07599665 -0.028463548 -0.0384603 -0.06912206 -0.16604646 -0.20600861
-0.03712104 -0.106195554 -0.037927285 -0.039344367 0.022771966 -0.16519627 -0.063281916 -0.009073235
00000000: 0c8f b8bd fcd8 3fbd 070b af3d 2147 6dbe
00000010: 9f70 f8bd a8ee da3d c52a 3dbe a368 9d3c
00000020: db8b a2bd 8240 babd 4b08 bcbd 8bf4 ccbd
00000030: 7558 c9bd c170 bebd 726c 0a3c 6675 a93b
00000040: cbc1 b7bd c0ae 813d 22a4 9b3d 632c e9bc
00000050: 8c88 1dbd de8f 8dbd 1508 2abe ecf3 52be
00000060: 3b0c 18bd 0e7d d9bd a459 1bbd 8f27 21bd
00000070: 468c ba3c 3629 29be f399 81bd e8a7 14bc

layer2.0.bn1.running_mean f4 [32]
-0.6475907 -2.7573528 -0.9840011 0.47421172 0.25792515 -2.5805433 -1.8468982 -4.040118
-1.7087605 -0.5356144 -2.6478386 0.9137028 -0.0072820946 -4.102717 0.46023077 0.24609224
-0.8563079 -0.4252109 0.2828067 -1.1205587 -0.12632008 -1.0927159 -2.147177 -2.0176883
2.8422353 -1.3579388 -0.8677144 -0.57944304 0.6411831 3.128295 4.115669 -0.23935519
00000000: 81c8 25bf 7878 30c0 7fe7 7bbf e1cb f23e
00000010: c40e 843e 9f27 25c0 2967 ecbf a648 81c0
00000020: aab8 dabf 061e 09bf 3076 29c0 6de8 693f
00000030: a39e eebb 7549 83c0 5ea3 eb3e 9bff 7b3e
00000040: ff36 5bbf 3eb5 d9be 0acc 903e 786e 8fbf
00000050: 0d5a 01be 1dde 8bbf 596b 09c0 ce21 01c0
00000060: 2fe7 3540 f0d0 adbf 8822 5ebf 6156 14bf
00000070: 9324 243f fc35 4840 8fb3 8340 8719 75be

layer2.0.bn1.running_var f4 [32]
4.882816 1.8979188 2.6356132 2.4669428 2.1399765 1.9115944 1.7465261 3.2291312
1.7337765 1.4335243 1.7630539 1.6014843 1.958794 2.5448723 1.351113 1.9334924
2.5679972 2.3929508 1.8659345 2.309272 1.2618657 1.035318 1.6439698 2.054055
2.6848488 1.5842612 1.5541271 2.0898523 2.0100887 2.1936169 1.8225906 1.5309066
00000000: 0740 9c40 01ef f23f e3ad 2840 64e2 1d40
00000010: 60f5 0840 20af f43f 2b8e df3f 16aa 4e40
00000020: 63ec dd3f b97d b73f c0ab e13f 70fd cc3f
00000030: c3b9 fa3f 30df 2240 45f1 ac3f ae7c f73f
00000040: 115a 2440 1b26 1940 f1d6 ee3f 1dcb 1340
00000050: d184 a13f 4d85 843f 9a6d d23f a375 0340
00000060: 90d4 2b40 12c9 ca3f a3ed c63f 24c0 0540
00000070: 4ba5 0040 3864 0c40 a64a e93f bff4 c33f
