demo_20181028/model.pth (torch_old, 118868 bytes, 14 tensors)

layer1.0.weight f4 [16, 1, 5, 5]
00000000: c621 083c 68a1 f63d 0035 98b9 0416 3bbe
00000010: 97e9 8a3c 66bc 9f3d 30cd 943e 7344 bebe
00000020: 143a 8bbf 9417 a9be 9d9c 15be 126f 293f
00000030: d7f6 a03f 7611 773d f940 20be 0e63 dbbe
00000040: 3a03 6abe e0d8 313f 3063 323f 2236 bebe
00000050: 6cf3 00be 4ea2 24bf 5b2a 41be 989d 023f
00000060: 5a3a 163e bebd 223d a03c 5a3e 9743 973e
00000070: 0065 ae3e 64fa 273e 70cb 1b3f 1555 073f
00000080: dc64 223f ba96 fc3e dc0b 593e 5412 623e
00000090: 9304 953e 38f7 2e3e 188b 58be 2168 02bf
000000a0: 05fc b1bd 5553 22be fdab 9fbe 6409 35bf
000000b0: 42f1 d1be c470 f0be 9ee3 0cbf f842 2fbf
000000c0: 000d 26be ef0f 9e3e 1a90 29bf 1c6a dcbe
000000d0: 3477 b93e 5105 d93d d771 d33e 3280 a3be
000000e0: 8e10 e8be 1c9e ed3c 8a41 883e 7aca f73e
000000f0: e5ed 08bf 01ea 14bf bde3 40bf b843 f4be
00000100: 15c9 5fbe 8030 37be fa41 fcbe 68aa cfbe
00000110: cda3 17bf dbbb 26bf a2b1 fabd 77be ec3e
00000120: ceca e53e f2b0 c43e 1da2 a73b b383 9a3e
00000130: f079 c3bc 4133 3fbe c574 e43d 5cac dd3d
00000140: a989 31be fe36 eabe 35fe fdbd ba7e 96bd
00000150: 374f 543d 169c ddbe 16de 1bbf f7cf 11be
00000160: 3fa7 1e3f 69a4 603d 13a6 0fbf 2248 68be
00000170: b9fc 893f f321 413f c519 a6be a155 06bf
00000180: ccc2 b83e 8ca1 203f 4126 cabe efca 03bf
00000190: 3638 eebe ff45 ec3e ce96 343f 5a82 fc3e
000001a0: 4f47 b23e 0072 a3bf b970 8dbf 659d e4be
000001b0: ab9e 2fbc 4920 d6be 30da 0a3e 8f8e bfbe
000001c0: 63d7 34bf 91fb 0abf 731d c6be 6a36 5d3e
000001d0: 69f3 703e ae1d 2a3e 5e56 a4be 51e1 1fbe
000001e0: 086d 8d3e 1b21 ae3e 6fe4 8f3b 302e 07be
000001f0: f4e1 463e f63b 72bd e90f c3bb 2326 c63e
00000200: d6ee d2be 6bc2 cb3d 8e80 37bf 0875 9cbd
00000210: 499f 203f 9f57 fbbe 3284 02bf 607c 88bf
00000220: 34a4 1e3f 000b 1a3f a0b5 42bf 6e79 16bf
00000230: 8b63 29bf a063 753f 4673 89be 192b 47bf
00000240: ba66 63be 9905 e6bd 7a48 923e 229d 13bd
00000250: d409 69bc 25a7 993e 631c 063d 6ef6 8ebd
00000260: 1495 2ebf 5d00 4dbf e9b5 173d 6d5e 8e3e
00000270: 1c58 0abe c288 01bf 6348 2dbf 9837 7cbe
00000280: 723e 5e3e 1bfc 073f e631 c3be 4204 68bf
00000290: f5cd 02bf 7b09 5f3e 3601 a63e 5894 263d
000002a0: f641 65bf d8ec 1ebf a5cd 503e 1a19 c73e
000002b0: 1902 c5bb 1afe 38bf 689f 7dbf 5915 e73d
000002c0: 5cde b93e bde7 a93e 12d6 b0be 60fd 11bf
000002d0: 99fd 85bf 7888 5dbe 332e d1be 2b1d c63d
000002e0: ff56 1d3f 6d37 233e 2004 073f a0fb fe3e
000002f0: 2608 b53e 2ac0 4c3f de3c 113f 9845 a43d
00000300: 03a0 d3be 9e2e 2cbf e187 8bbe fdf0 abbe
00000310: cded febe a7b9 0dbf ea39 22bf 3fe0 cfbd
00000320: aea3 ee3d ff36 963e d6f7 873e 0520 333e
00000330: 99d4 f6be a2f7 e03e 58c8 903e 65b4 bdbe
00000340: 2421 29bf ea95 a2be bda1 fc3e ecaf 6b3e
00000350: 638d 17bf 3add 51bf f728 b73d 5b08 01be
00000360: 7656 ddbe e215 1ebf 9d48 04bf 64da 583e
00000370: a6f0 35bf 6559 ffbe 156f dbbd 8eaa 00be
00000380: cc61 61bc 8115 8f3d ae9e 5b3f 8218 0c3e
00000390: edc2 d2be 8cdf 0abf f388 a0be 2d72 393f
000003a0: b730 6e3e b096 19bf 67e0 57bf 48f6 0e3e
000003b0: 1c8a 4d3f b695 e03d b48e 00bf 0283 16bf
000003c0: 34aa db3e 795a 603d 50e4 96be 550c 22be
000003d0: 7639 69be 9ff1 033b a561 4bbe 4577 23be
000003e0: c6da 8fbe 81bb d23c 9faa bf3e 9fa4 2b3f
000003f0: 3dec 173e 7a98 45bb 7a08 753d c072 933e
0.008308833 0.120425045 -0.00029031187 -0.18270117 0.016957087 0.07799606 0.29062796 -0.37161598
-1.0877099 -0.330258 -0.14610524 0.66185105 1.257533 0.060319386 -0.15649785 -0.4284901
-0.22852793 0.6947155 0.696826 -0.37150675 -0.12592858 -0.6431016 -0.18863814 0.5102172
0.14670697 0.039731734 0.21312189 0.29543754 0.34061432 0.1640411 0.60857296 0.528642
0.6343515 0.49333745 0.2119593 0.22077304 0.29105052 0.17086494 -0.2114681 -0.5094014
-0.08690647 -0.15852101 -0.31185904 -0.70717454 -0.41004378 -0.46961033 -0.55034816 -0.6846156
-0.16215897 0.3087153 -0.66235507 -0.43049705 0.36223757 0.10596717 0.4129779 -0.31933743
-0.4532513 0.029006056 0.26612502 0.48396665 -0.53488 -0.5816956 -0.753475 -0.47707915
-0.2185405 -0.17889595 -0.49269086 -0.40559697 -0.59234315 -0.65130395 -0.12240912 0.46239063
0.4488129 0.3841625 0.005115761 0.30178604 -0.023861855 -0.18671896 0.111550845 0.108238906
-0.1733767 -0.4574508 -0.12402002 -0.0734839 0.051833358 -0.43283147 -0.6088575 -0.14239489
0.6197395 0.054844294 -0.56112784 -0.22683766 1.078025 0.7544243 -0.32441536 -0.5247441
0.36086118 0.627465 -0.3948231 -0.5148153 -0.4652726 0.46147153 0.7054261 0.493182
0.3482003 -1.2769165 -1.1050025 -0.44651332 -0.010718982 -0.41821507 0.13559794 -0.3741345
-0.70641154 -0.5429011 -0.38694343 0.21602789 0.23530354 0.16612884 -0.32097143 -0.15613295
0.27622247 0.34009632 0.004391245 -0.13201213 0.19422132 -0.059139214 -0.0059528244 0.3870097
-0.41197842 0.09949192 -0.71680534 -0.076395094 0.6274305 -0.49090287 -0.50982964 -1.0662956
0.61969304 0.60173035 -0.7605839 -0.58779037 -0.66167516 0.9585514 -0.2684576 -0.77800137
-0.22207156 -0.112315364 0.2857092 -0.036038525 -0.014223535 0.30010334 0.032741915 -0.069805965
-0.68196225 -0.8007868 0.037038717 0.27806416 -0.13510174 -0.505993 -0.6768858 -0.24630582
0.21703508 0.5311906 -0.38124007 -0.90631497 -0.51095515 0.2178096 0.324228 0.040668815
-0.89553773 -0.62080145 0.20390947 0.38886338 -0.006012213 -0.7226273 -0.9907136 0.112833686
0.3630246 0.33184615 -0.34538323 -0.57027245 -1.0468017 -0.2163409 -0.4085556 0.09673532
0.6146087 0.15939112 0.5274067 0.4980135 0.3535778 0.7998072 0.567335 0.080210865
-0.41333017 -0.6725863 -0.27252105 -0.33582297 -0.49790803 -0.5536141 -0.6336962 -0.101501934
0.11652313 0.29338834 0.2655627 0.17492683 -0.48209074 0.4393893 0.2827785 -0.37051693
-0.66066194 -0.31755 0.49342147 0.23016328 -0.59200114 -0.8197819 0.0894336 -0.12600844
-0.43230027 -0.6175214 -0.516733 0.2117706 -0.71070325 -0.4987289 -0.107145466 -0.12565061
-0.013756227 0.069865234 0.85789 0.13681224 -0.41164342 -0.54247355 -0.31354484 0.72439843
0.2326077 -0.59995556 -0.84326786 0.13961136 0.80288863 0.10966055 -0.5021775 -0.5879365
0.42903292 0.05477378 -0.29471064 -0.15825017 -0.22775826 0.002013303 -0.19861467 -0.15963466
-0.28096598 0.025724174 0.3743486 0.67048067 0.14836212 -0.0030150698 0.059822537 0.28798485

layer1.0.bias f4 [16]
00000000: 2cee 803d cb64 983e 777e 843c cdea 8ebc
00000010: 908b 803e 9734 603e 0123 db3e 47e0 cabd
00000020: cb59 b83e 1166 babe 39d0 b1be a811 2cbe
00000030: 5a3e bfbe bf58 f2bd 7159 05bd 841f 3fbf
0.06295428 0.297644 0.016173584 -0.017445946 0.25106478 0.21895061 0.42800143 -0.09906059
0.36006007 -0.36405995 -0.34729174 -0.1680361 -0.37352258 -0.11833333 -0.032556 -0.74657464

layer1.1.weight f4 [16]
00000000: fa50 693f 73f2 6a3f 5bf8 b23f d53a 273f
00000010: e2c1 ab3f f5c0 d23e 8438 6d3f d0cc 193f
00000020: a9ee 8b3f d152 0e3f 9ed0 573f bcc9 3a3f
00000030: fa36 083f 94e1 833f b022 333f 76af 053f
0.91139185 0.917762 1.3982042 0.65324146 1.3418543 0.4116284 0.9266436 0.60078144
1.0932208 0.5559512 0.843027 0.7296407 0.5320889 1.0303216 0.69974804 0.5222086

layer1.1.bias f4 [16]
00000000: 9201 75bf 4a0d d3bd 7268 bcbe 63c7 bbbe
00000010: 612d d9bb 96c2 d4be a2fb 6bbb 1f45 67be
00000020: ea23 2cbe 4f24 edbe 95d2 e6be a10e 08bf
00000030: 4c6c b23d 6662 81be 442c 49bf 4800 f2bd
-0.9570552 -0.10305269 -0.36798435 -0.36675557 -0.006627724 -0.41554707 -0.003600814 -0.22584961
-0.16810575 -0.46316764 -0.45082536 -0.5314732 0.08712062 -0.25270385 -0.7858317 -0.1181646

layer1.1.running_mean f4 [16]
00000000: 9cba ac3d 0dcc 903e 787b e8be 31d5 e8bd
00000010: c8f6 ecbd d919 18be 14cb a4be 4c80 a2be
00000020: 77d7 1fbe 89bc 0dbf 0292 92be 5b37 48be
00000030: edba 62bf d576 8fbe 59ac 043e 2008 76bf
0.084340304 0.28280678 -0.454067 -0.11368788 -0.11570507 -0.1485361 -0.32186186 -0.31738508
-0.15609537 -0.55365807 -0.2862702 -0.19552366 -0.88566476 -0.2802035 0.1295637 -0.9610615

layer1.1.running_var f4 [16]
00000000: d6f2 803e 1a80 5f3f 0580 873f 2b6e f13e
00000010: b27c 4d3f c7ef 243f 7f43 2440 8d23 ca3e
00000020: 5bba b53f d0d9 7e3f c52a ca3e 0233 9e3f
00000030: 11cb f13f d620 493f 04c3 c63e 469f a13e
0.2518527 0.8730484 1.0585943 0.47154364 0.80268395 0.6442837 2.5666196 0.39480248
1.4197496 0.99551105 0.39485756 1.2359316 1.8890096 0.7856573 0.3882066 0.31566828

layer2.0.weight f4 [32, 16, 5, 5]
00000000: d729 b5be 3113 f33d 8ed0 9bbd b213 13bb
00000010: e109 d2be 4603 bd3d 8cfa a03e 2a8a 2a3c
00000020: 0bc4 c23e b345 663e ee8e a5be 0262 b2bd
00000030: 67d4 ad3e b6a7 c63e bb86 793f 8bf2 50be
00000040: decc 46be 6609 bbbc 4fef cabe 83a2 363e
00000050: 1d93 18bc f68a 19be 77cc db3c c462 e6be
00000060: ef9e 19bf 28bd c3be a8c0 13bf 3058 74bf
00000070: 3134 47bf c16e 99be 9dce f73e f51d b53e
00000080: ade8 ddbd ab83 26bf 1701 30bf 30b5 c63d
00000090: 94de 223e 2f61 143e 5b6f 1fbe 4558 34bf
000000a0: 8ef6 b3bd ba41 ecbd 799b a33e 532a 663e
000000b0: 725e 733e 20e5 543e 290c ce3d 2e0e 06be
000000c0: 1c5a 8bbe a51e f8bd 9a07 fdbd 76cc 30be
000000d0: fe56 6abe a466 383c a590 ca3d eca0 81be
000000e0: 15d5 3abe 2f7e 06bf 48fb ef3d b0a8 89bd
000000f0: 98e0 0ebf f695 5ebe 9c23 7b3d 9e6c 013e
00000100: f5b0 6d3c a2bd 97be a81b 873e d8a6 ae3e
00000110: f92d 143f c32b ed3d a8b2 bf3c e2f6 33bd
00000120: c493 e2bd 4d5a afbe f5b9 0bbf b665 0e3d
00000130: 1ae1 f2bd 8eb0 1b3e a306 973d 5a16 ee3e
00000140: fa75 a03d fd70 5fbe 0457 d73d b009 8dbe
00000150: a39a 47bd 79fc 413d 12ae 103e ad05 68bd
00000160: 318a fdbd daa8 4bbe e4c0 2e3d c238 51be
00000170: 0bbb 36be bc58 cb3d 953a ea3c df7d 8ebe
00000180: 18f0 afbe 249c b23d 5096 283f 9c84 813e
00000190: 9607 68bf d394 23be 6700 c13d 95b1 603e
000001a0: 0250 c03c f080 ffbe 896e cfbe c673 51bf
000001b0: 9135 4ebe 7bfd 13be f455 8b3e 99f9 9a3e
000001c0: 2030 83be 3d49 20be 3506 1cbd f2cc debe
000001d0: 5dd6 cbbc 6adb c83d 9d03 30be 627b 5bbe
000001e0: 58d7 663a c43b b53e e818 b93e 2448 bd3d
000001f0: b3aa 50be 1767 0d3e fc36 3e3e 08fe 45be
00000200: a622 1b3d 9f17 01be 1bf1 fabe 60b5 7abd
00000210: 3ad7 63bd 7550 1bbe 1cdd ab3e a7db 08be
00000220: b5bd 6c3d cd29 d0bc 9f8b 3dbf 350c 69bd
00000230: 6084 61be adcf 723e 4caa c33b 017c 42be
00000240: 3aa0 47be c25a d03d 7160 79be c7a2 aabe
00000250: d122 4d3e 7a1b 8c3e dddc 76be 10c7 28bd
00000260: a2f3 8e3e 7264 8e3b e575 863d 6637 c9be
00000270: 1d4f 71be 1029 1b3f 09eb ad3e 2b67 843e
00000280: 8279 073e dc28 10bf e97c f73d 5550 b3bd
00000290: 31a9 243d 3a62 cf3e b9e7 adbe ca26 36be
000002a0: 3cac d83d b886 5cbe 8eb3 223f 63a5 f73e
000002b0: a62c 84be 2f54 d3bd 1164 83be 9a80 2a3f
000002c0: b573 c23e bd92 ab3e 668b 723e 8cf7 de3e
000002d0: eb91 853e b934 853e 7de0 6d3e 79e8 393e
000002e0: dab0 babe 7a15 9cbe 9ea0 a93e 171a 123e
000002f0: 1ab0 52bc f73f 88bc 42b9 9fbe f641 2fbe
00000300: b0e3 3cbe 814e 80bd d07d c13e 7dc9 a4bd
00000310: 289c 02be 1e38 85be 7b59 2abf b4bf 88bd
00000320: 2f13 ebbd d6e4 fcbe 8893 48be a680 58be
00000330: b1ae 26be e921 c73b 6a95 f9bd bb72 c43d
00000340: e2cc 02be a5ea f7bd 2f52 493e b87c acbd
00000350: 9a8e 583e 2c2f b2bd 4e6a b4be b4cc 0e3d
00000360: 20e1 39be b682 55bd 483e eabd 587b 5cbe
00000370: dd79 f53d 5973 f63c e4ee 08be 56ec 83bd
00000380: e92d f53c 0508 2ebb a206 04be c042 67be
00000390: 396b dcbd 333f 22be e23f cbbe 0dcc 5fbe
000003a0: b4ad 2abe d9ed a9bd 380c 69be b476 f0bb
000003b0: 0b95 debd 6f5e 4a3e 1278 45be cf12 a9be
000003c0: 01ea e93d bb39 45bd 23b3 1fbd 1365 85be
000003d0: 5748 c4bd 0d31 3e3e f7d9 553d 5f1b 91be
000003e0: 7d9d a33d 7d55 3b3e 19c2 3a3e 36b3 0a3f
000003f0: 1e4e 2b3f 8535 943e 8fda 2e3e e344 c03d
-0.35383484 0.11868895 -0.07608138 -0.002244216 -0.41023162 0.0922914 0.31441152 0.010408917
0.38040194 0.22487526 -0.3233561 -0.087101 0.33951113 0.38799828 0.9747121 -0.20405023
-0.19414088 -0.02283163 -0.39635703 0.17835431 -0.009312418 -0.14994416 0.026830895 -0.44997227
-0.6000814 -0.38230252 -0.57715845 -0.95447063 -0.7781401 -0.2996731 0.4839982 0.35374418
-0.10835395 -0.6504466 -0.6875166 0.097025275 0.1590522 0.14490198 -0.15569822 -0.7044719
-0.08787261 -0.11535974 0.31954554 0.22477083 0.23766497 0.20790529 0.10060913 -0.13091347
-0.27217185 -0.1211522 -0.123549655 -0.17265496 -0.22884747 0.01125494 0.0989087 -0.25318086
-0.18245347 -0.5253629 0.1171785 -0.06721628 -0.5581145 -0.21736893 0.061313257 0.1263909
0.014507522 -0.29636866 0.26388288 0.34111667 0.5788265 0.115806125 0.02340062 -0.043936618
-0.1106334 -0.34248582 -0.5458062 0.034764968 -0.11859341 0.15204069 0.07374313 0.46501428
0.07835002 -0.21820445 0.10514644 -0.27546453 -0.048731457 0.047359917 0.14128903 -0.056646038
-0.123798735 -0.1988863 0.042664424 -0.20431808 -0.17844789 0.09929034 0.028592387 -0.27830407
-0.34362864 0.08721188 0.6585436 0.25296485 -0.90636575 -0.1597474 0.09423905 0.21942742
0.02347565 -0.4990306 -0.4051402 -0.8181728 -0.20137621 -0.14452164 0.27214015 0.30268553
-0.25622654 -0.15652938 -0.038091857 -0.43515736 -0.02488249 0.09807475 -0.17188878 -0.21433786
0.00088058924 0.3539716 0.36151814 0.09242275 -0.20377617 0.13808857 0.18575662 -0.19335186
0.03787484 -0.12606667 -0.49012074 -0.06120813 -0.055625178 -0.1516741 0.3356713 -0.1336504
0.057798106 -0.025410557 -0.7404117 -0.056896407 -0.22023153 0.23712035 0.0059712287 -0.18992616
-0.19494715 0.10173561 -0.24353196 -0.33327314 0.20032813 0.27364713 -0.2410769 -0.041205466
0.27920252 0.00434547 0.06565455 -0.39300078 -0.23565336 0.6060953 0.3396838 0.2585996
0.13229945 -0.56312346 0.120843716 -0.087555565 0.040200416 0.40504628 -0.33965853 -0.17788234
0.10579726 -0.21535766 0.6355523 0.48368368 -0.25815314 -0.10318791 -0.25662282 0.6660248
0.37978902 0.3351039 0.23685989 0.43548238 0.2608789 0.26016787 0.23230167 0.18155088
-0.36463052 -0.30485135 0.33130354 0.14267765 -0.012859369 -0.016632063 -0.31196028 -0.17115006
-0.18446231 -0.062649734 0.377913 -0.08046243 -0.12754881 -0.26019377 -0.66542786 -0.066771895
-0.11478268 -0.49393338 -0.19587529 -0.21142825 -0.16277577 0.0060770405 -0.121867016 0.095921956
-0.12773469 -0.12105302 0.19660257 -0.08422226 0.21148148 -0.087004036 -0.35237354 0.03486319
-0.18152285 -0.05212661 -0.114376605 -0.21531427 0.11986134 0.030084299 -0.1337238 -0.06441562
0.029929118 -0.0026555073 -0.12893155 -0.22584057 -0.107626386 -0.15844421 -0.39697176 -0.21855183
-0.16667825 -0.08297319 -0.22758567 -0.0073383693 -0.108682714 0.19762586 -0.19284084 -0.33022162
0.11421586 -0.04815076 -0.038989197 -0.26053676 -0.0958411 0.18573399 0.05220982 -0.28341195
0.07989023 0.1829433 0.18238105 0.54179704 0.6691607 0.28947082 0.17075561 0.09388139

layer2.0.bias f4 [32]
00000000: b24e 37bd 782b 4b3d 2e17 bbbc 285c 2fbd
00000010: 69c1 143d c2c5 f8bb f7e5 1b3d dddf 2bbd
00000020: 49d1 f7bb 7c5a bbbc 22ca 233c aa00 edbc
00000030: 85c6 103c f1b3 0cbd 5d35 f83c d77d 54bd
00000040: 7003 51bd 334a 05bb 084d 2fbd 16cd 473d
00000050: f6c3 293d 8531 4bbd 265d f23b d755 72bd
00000060: d3d0 15bd 50f2 dc3b 61df 9ebc a04b 7b3d
00000070: 80af 403d 10ad bebc fcb8 e23c 641c 30bd
-0.044752784 0.049602002 -0.022838201 -0.042812496 0.036317263 -0.007591934 0.03806111 -0.04196154
-0.0075627905 -0.022870295 0.009996923 -0.02893098 0.008836393 -0.034351293 0.030298883 -0.051877823
-0.05102867 -0.0020338416 -0.042798072 0.04877957 0.04144665 -0.049607772 0.007396358 -0.059163895
-0.036576103 0.006742753 -0.019393625 0.06135142 0.04704237 -0.023275882 0.027676098 -0.042995825

layer2.1.weight f4 [32]
00000000: c7be 4b3f e460 253f 63b3 f13e 602d 153f
00000010: 153e fc3e 53b4 f63e 13e0 223f b2e9 403f
00000020: a11c 053f 1390 113f 228b c53e 4d4d bc3e
00000030: d7d6 da3e 0c2c ac3d 6450 bebc bf77 ba3e
00000040: e80b 213f 8242 3f3f 8946 bb3e 9d49 c83e
00000050: 21f2 0c3f 7fcc 113f d3b6 ff3e d605 1d3f
00000060: 3b03 ed3e 0543 213f b8a5 233f f92c 143f
00000070: 9bde 3b3f fb70 c2bb 59fc 0f3f 5eb9 a33e
0.7958798 0.6460097 0.47207174 0.5827236 0.49266115 0.4818445 0.6362316 0.7535659
0.5199681 0.56860465 0.38582712 0.36777726 0.42742035 0.08406839 -0.023231693 0.36419484
0.6290879 0.7471086 0.36577252 0.39118662 0.5505696 0.5695266 0.4994417 0.6133703
0.46291527 0.6299289 0.6392474 0.5788112 0.73386544 -0.0059338785 0.56244427 0.3197736

layer2.1.bias f4 [32]
00000000: f1cd 39bf 8ac2 0abf a13e 14bf 5174 e2be
00000010: 05cb edbe 2c7d 04bf a13e 0ebf 03c2 0fbf
00000020: cdca 33bf 38ab 20bf 6531 e2be 9b4a 03bf
00000030: 46f0 03bf 5113 b6be 562e 01be d59f 69be
00000040: ab69 27bf 6bd6 26bf 28bd 14bf 0174 c2be
00000050: 5a88 e2be 8766 07bf 4d69 f5be 9a3d febe
00000060: 09aa 09bf 6e0d dfbe b629 18bf 3e9b 68bf
00000070: 0feb 27bf 164e 06be c9e0 0ebf ae13 20bf
-0.72579867 -0.54203093 -0.57908064 -0.44229367 -0.46443954 -0.517535 -0.55564314 -0.56155413
-0.70231324 -0.6276126 -0.4417831 -0.51285714 -0.51538503 -0.35561612 -0.12615332 -0.22814877
-0.6539561 -0.65170926 -0.5810113 -0.3797913 -0.44244653 -0.5289082 -0.479319 -0.49656373
-0.5377508 -0.43564934 -0.59438646 -0.9086188 -0.65593046 -0.13115725 -0.55811745 -0.6253003

layer2.1.running_mean f4 [32]
00000000: 2014 cfc0 9ff0 cd3f dd14 3bc0 1640 35c0
00000010: 328d 36c0 0e80 54c0 4ed6 4dc0 b9fe 95c0
00000020: 6f0d 87c0 e1b0 f23f 5d0e 9dbe 1417 eebf
00000030: 3105 a33f c5b3 c5c0 d2a3 64c0 2ee5 cd3f
00000040: b5c5 51c0 ed20 30c0 b7d3 1d40 b9ae 9440
00000050: f3d9 f9c0 c7c8 8dc0 565d 1cc0 ae00 fdbf
00000060: b119 17c1 61a7 e6c0 dae2 1ec0 8c46 9dc0
00000070: 9238 90c0 572a 27bf d952 8240 e510 3cc0
-6.4712067 1.6089057 -2.9231484 -2.8320365 -2.8523679 -3.3203158 -3.2162051 -4.687344
-4.22039 1.8960229 -0.3067502 -1.8600793 1.2735959 -6.1781945 -3.5724988 1.6085565
-3.277692 -2.7520096 2.466047 4.6463284 -7.807855 -4.430759 -2.4431968 -1.9765832
-9.443772 -7.207932 -2.482596 -4.9148617 -4.5069056 -0.6529898 4.0726132 -2.9385312

layer2.1.running_var f4 [32]
00000000: b54a 2c42 c7d3 2242 9556 6542 4caf 1342
00000010: 8355 3942 d1f8 5742 cc14 2f42 ae5e a642
00000020: 9916 1242 ee8b 2c42 cfcf ba41 ae62 de41
00000030: 2cd7 5e42 fd27 8942 94ac 0241 b637 2f42
00000040: 5362 b741 9100 8942 ebe7 1c42 f6b7 b542
00000050: cd84 aa42 9cc9 1642 4855 0642 aaa1 5c42
00000060: 4d91 6942 06b7 ac42 a2bd 6a42 ad59 f141
00000070: 2090 0042 21ec 9b40 655d d742 e074 bc41
43.072956 40.706814 57.334553 36.92119 46.333508 53.992985 43.77031 83.18492
36.522068 43.13665 23.351469 27.798183 55.71013 68.5781 8.167133 43.804405
22.92301 68.50111 39.226482 90.8593 85.25938 37.696884 33.583282 55.157875
58.391895 86.35747 58.68519 30.168787 32.140747 4.8725743 107.68241 23.557068

fc.weight f4 [10, 1568]
00000000: 0e4b f0bd e9db aebe 032a b0bc f9c2 58bf
00000010: d01f 0c3e ca8b a23a 58cf fd3d 8c5f 4ebe
00000020: 120a 6dbe 9b15 cebd 20cf 223e 3d42 883e
00000030: 46a3 8fbe 514c 84be 3aef a0bd cfa7 89be
00000040: 01bd 65bc 2034 8d3e f576 623e c389 b93c
00000050: 5103 3d3e 2c05 7b3d eefb 15be 2be2 a7bd
00000060: aa0f 74be 2496 163d 0247 503d 6f28 5fbe
00000070: 9b86 ac3d 5a89 963d 0d9d cdba 1218 ddbd
00000080: 6f8d 33be 211c 95be 0f55 22bc 9e12 9bbd
00000090: 4c63 99bd 93ac 033e 83e1 203d 15c2 9bbe
000000a0: a2a2 b1be 63b0 b6be 57e0 923d 4ff3 3e3d
000000b0: bf21 cdbb aeba 65bd 57e9 b5bd fe2f 22be
000000c0: ff2d 71bd 84e9 bdbb b9b8 4dbb c82b 223c
000000d0: bc2e 0e3d 7d67 103d c944 943d efcb 143e
000000e0: 4b2d 83bb d434 683e cfae 213e 2a7b ab3c
000000f0: 5cf2 24be e3fa 18be bcec d63c 944e 26be
00000100: b539 abbe dccc 5b3d 094c 3cbe 66a6 42be
00000110: a0be 2ebe eb9a 3bbd f372 e0be 9678 ac3d
00000120: 3d2c 063e d68a 383c ac13 afbe b631 0bbe
00000130: 4cff b63c 2e71 d6bd a924 febe 65fd c23d
00000140: dfe4 3c3e 757c 78bb 9c98 1d3e b15b 933e
00000150: 90ed eebe a3b2 5bbf 831d ea3e 3d3f 953e
00000160: 2217 8f3e 00dc 293e 1221 3e3e 5269 a63d
00000170: fafd a8be 5099 ca3d 6d51 b6bd b5b3 1a3d
00000180: c843 4cbe 97ef 1dbe 107c 1a3e 2170 853e
00000190: 01fb 90be d3f7 2ebe 58a7 cdbc 8f1b b6bd
000001a0: 2ff9 9e3d 99d4 403e 587e fd3d c5df 12bf
000001b0: 7682 36be 6f66 b0bd 0e8d 82bd 44b7 aa3e
000001c0: b9ee 413e aea1 cebd c297 8c3d 853f 943b
000001d0: 4cbf 5f3d f907 533e 9de3 b83e 3c5e 553e
000001e0: 7000 00bf f429 c2bd b059 503f f4ca 34bd
000001f0: c332 253d b110 2c3e bb52 853e 95f4 4c3e
00000200: 75d1 6c3e f258 363f 6904 85be 00a0 a8bd
00000210: 405f df3c fa89 57ba 764e ae3e 5be7 3e3e
00000220: 2961 57be c8a7 d3be fbfe ddbe 1531 11be
00000230: dc68 403d 48d4 0ebb ca68 dd3d 3fab 713d
00000240: 866a 86be 7768 dabe 3354 fcbd aede 23bd
00000250: b9c4 e53b 483c 30bb 2d68 de3b 2c63 3b3e
00000260: 4b94 fd3a ffae 533a 0610 2e3b f1e8 93bd
00000270: 9173 08bf e059 b3bd f794 b0bd 9abc c8bc
00000280: b7e7 97bc 9a2d e3bc 608d 3abe a012 49be
00000290: 8dd2 03be d623 503c f0cc 193d fada 8bbb
000002a0: 672f 45bc 6603 53be f1de 86be d5e4 cfbe
000002b0: dab0 acbe e7a9 f33c 9a0a 73bc 6ba4 e2bb
000002c0: 4c21 b83d accd ec3d be55 08be e8fe 2abc
000002d0: 80c2 89bc 85cb 9d3c c30f c53c c774 a23d
000002e0: de14 723d 6ee1 643e 8054 0d3e 86db c6bc
000002f0: 33b2 c9bc e397 42bd 15bd 193d c627 893d
00000300: 9ff2 b93d 6190 ed3c 0282 b5bc 8235 4fbd
00000310: 1fe2 0dbc 8e39 7c3c fd47 8ebc 9797 033d
00000320: 957a 903d faa8 a5bd b1c6 a13c 5328 95bc
00000330: ab14 36bd 7674 0abd 1806 fc3d e644 a1bd
00000340: 83a2 23bc 80b8 f6bc a56f b7bc d20a 30be
00000350: d859 49bd f38b 843e c5d3 a8be ccb4 ffbd
00000360: 8128 263d f024 05bd edbe dd3c 49e0 54bf
00000370: 9087 47be 6c99 853c 9dae 59be efe5 b2bb
00000380: 984c f8bc 93f3 71bd 92cb 26bf 84fc f0be
00000390: d0e0 9ebd 5f02 443d 6f31 793d 973c 65bc
000003a0: e36d 9b3b 14f4 113e 8225 9d3e bbc0 1c3e
000003b0: a27b b83d 19ce 803d b974 a43b d886 763c
000003c0: 1101 51bb f026 293e a225 333e 62d0 133d
000003d0: 12d9 0d3d 3aca d0be 0df5 53be 54a6 9dbd
000003e0: 224e 21bd b9e6 e7bc 5581 96bd 74ad 23bf
000003f0: bf6f d9bd 5ea8 fdbd 6488 c2bc f923 88bd
-0.117330655 -0.34152153 -0.021504408 -0.84672505 0.1368401 0.001240128 0.12393063 -0.20153636
-0.23148373 -0.10062715 0.15899324 0.26613036 -0.28054255 -0.25839475 -0.07858129 -0.2688584
-0.014022113 0.2757883 0.22115691 0.022648698 0.18458296 0.06128423 -0.14646885 -0.08197435
-0.238341 0.03676428 0.05084897 -0.21792768 0.084241115 0.073504165 -0.0015687064 -0.10795607
-0.17534421 -0.29123023 -0.009907975 -0.0757191 -0.074896425 0.128588 0.039277565 -0.3042151
-0.3469439 -0.35681447 0.07171696 0.046618756 -0.0062601264 -0.056086235 -0.08882397 -0.1583862
-0.058881756 -0.0057956595 -0.003139062 0.009898134 0.034712538 0.035254944 0.07239682 0.1453092
-0.004003202 0.22676402 0.1578934 0.020932753 -0.16108078 -0.14939456 0.02623593 -0.16240913
-0.33442464 0.053662166 -0.1838838 -0.19008788 -0.17064905 -0.04580204 -0.438377 0.084214374
0.13102813 0.01126357 -0.34194696 -0.13593182 0.022338532 -0.10470806 -0.49637344 0.095209874
0.18446682 -0.003791598 0.15390247 0.28780892 -0.4666562 -0.85819453 0.4572564 0.2914981
0.27947336 0.1658783 0.18567303 0.08125557 -0.3300627 0.09892523 -0.089022495 0.03776904
-0.19947731 -0.15423428 0.15086389 0.2606211 -0.283165 -0.17086725 -0.02510421 -0.08891975
0.07762372 0.188311 0.12377614 -0.57372695 -0.17823204 -0.08613288 -0.0637456 0.33342946
0.18938722 -0.10089432 0.06864883 0.0045241737 0.054625794 0.2060851 0.36111155 0.20836729
-0.5000067 -0.09480658 0.8138685 -0.044138864 0.040331613 0.16803242 0.2603968 0.20015176
0.23126777 0.7122947 -0.25979927 -0.082336426 0.027267098 -0.0008222159 0.34044236 0.18642943
-0.21033157 -0.41338944 -0.43358597 -0.1417888 0.046975 -0.002179401 0.108110026 0.059001204
-0.26253146 -0.42657825 -0.12320747 -0.040007286 0.0070119766 -0.00268914 0.006787321 0.1829955
0.0019346563 0.00080750877 0.0026559844 -0.072221644 -0.5330134 -0.08757377 -0.08622163 -0.024503995
-0.018543107 -0.027731705 -0.18217993 -0.19636011 -0.12873287 0.012703856 0.03754896 -0.0042680474
-0.012035227 -0.20606765 -0.26341966 -0.40604272 -0.33728677 0.029744102 -0.014834071 -0.006916573
0.08990726 0.11562666 -0.13313958 -0.010436751 -0.016816378 0.019262085 0.024055367 0.0793243
0.05910193 0.2235162 0.13801765 -0.024274599 -0.024621105 -0.04750813 0.03753384 0.06697039
0.090794794 0.02899951 -0.02215672 -0.05058814 -0.0086598685 0.0153945815 -0.017368311 0.03212699
0.07054631 -0.0808887 0.019748064 -0.018207705 -0.044453304 -0.033802472 0.1230585 -0.078744695
-0.009987476 -0.030117273 -0.022392103 -0.17191628 -0.049157947 0.25888023 -0.32974067 -0.12485656
0.04056597 -0.03250593 0.02706858 -0.8315473 -0.19485307 0.016308509 -0.21258016 -0.005459539
-0.03030996 -0.05907018 -0.65154374 -0.47067654 -0.07757723 0.047853824 0.06083816 -0.0139914965
0.004743324 0.14253265 0.3069268 0.15307896 0.09007956 0.0628931 0.0050187972 0.015046798
-0.0031891505 0.1651876 0.17494825 0.0360874 0.034630843 -0.40779287 -0.20698948 -0.0769774
-0.039381154 -0.02830826 -0.07348887 -0.63936543 -0.10617017 -0.12385629 -0.023746677 -0.06647486

fc.bias f4 [10]
00000000: 0b78 b33d fca7 c13e c800 29be 84ee 23bc
00000010: f15a c2bd 9e09 b6bb e08e b9bd be25 213e
00000020: 2b39 be39 f41f c3bc
0.08763131 0.37823474 -0.16504204 -0.010005597 -0.09490002 -0.0055553457 -0.09060454 0.15737054
0.00036282217 -0.023818947
